FingerPrints-1-32-nodes-0-dense-1608483912
Model: "sequential"
_________________________________________________________________
Layer (type)                 Output Shape              Param #   
=================================================================
conv2d (Conv2D)              (None, 158, 158, 32)      320       
_________________________________________________________________
activation (Activation)      (None, 158, 158, 32)      0         
_________________________________________________________________
max_pooling2d (MaxPooling2D) (None, 79, 79, 32)        0         
_________________________________________________________________
flatten (Flatten)            (None, 199712)            0         
_________________________________________________________________
dense (Dense)                (None, 10)                1997130   
_________________________________________________________________
activation_1 (Activation)    (None, 10)                0         
=================================================================
Total params: 1,997,450
Trainable params: 1,997,450
Non-trainable params: 0
_________________________________________________________________
Epoch 1/20
20/20 [==============================] - 6s 275ms/step - loss: 13.4760 - accuracy: 0.0828 - val_loss: 6.6907 - val_accuracy: 0.0938
Epoch 2/20
20/20 [==============================] - 4s 220ms/step - loss: 4.2973 - accuracy: 0.2861 - val_loss: 2.6743 - val_accuracy: 0.1562
…
20/20 [==============================] - 4s 212ms/step - loss: 0.0139 - accuracy: 1.0000 - val_loss: 2.2420 - val_accuracy: 0.4125
Epoch 19/20
20/20 [==============================] - 4s 213ms/step - loss: 0.0110 - accuracy: 1.0000 - val_loss: 2.2656 - val_accuracy: 0.4000
Epoch 20/20
20/20 [==============================] - 4s 214ms/step - loss: 0.0096 - accuracy: 1.0000 - val_loss: 2.2838 - val_accuracy: 0.4062
FingerPrints-2-32-nodes-0-dense-1608483999
Model: "sequential_1"
_________________________________________________________________
Layer (type)                 Output Shape              Param #   
=================================================================
conv2d_1 (Conv2D)            (None, 158, 158, 32)      320       
_________________________________________________________________
activation_2 (Activation)    (None, 158, 158, 32)      0         
_________________________________________________________________
max_pooling2d_1 (MaxPooling2 (None, 79, 79, 32)        0         
_________________________________________________________________
conv2d_2 (Conv2D)            (None, 77, 77, 32)        9248      
_________________________________________________________________
activation_3 (Activation)    (None, 77, 77, 32)        0         
_________________________________________________________________
max_pooling2d_2 (MaxPooling2 (None, 38, 38, 32)        0         
_________________________________________________________________
flatten_1 (Flatten)          (None, 46208)             0         
_________________________________________________________________
dense_1 (Dense)              (None, 10)                462090    
_________________________________________________________________
activation_4 (Activation)    (None, 10)                0         
=================================================================
Total params: 471,658
Trainable params: 471,658
Non-trainable params: 0
_________________________________________________________________
Epoch 1/20
20/20 [==============================] - 8s 382ms/step - loss: 2.6780 - accuracy: 0.1316 - val_loss: 2.2968 - val_accuracy: 0.0938
Epoch 2/20
20/20 [==============================] - 7s 336ms/step - loss: 2.2289 - accuracy: 0.2777 - val_loss: 2.2131 - val_accuracy: 0.2562
…
20/20 [==============================] - 7s 356ms/step - loss: 0.0128 - accuracy: 1.0000 - val_loss: 2.1578 - val_accuracy: 0.4750
Epoch 19/20
20/20 [==============================] - 7s 346ms/step - loss: 0.0087 - accuracy: 1.0000 - val_loss: 2.1773 - val_accuracy: 0.4750
Epoch 20/20
20/20 [==============================] - 7s 343ms/step - loss: 0.0075 - accuracy: 1.0000 - val_loss: 2.1987 - val_accuracy: 0.4938
FingerPrints-3-32-nodes-0-dense-1608484138
Model: "sequential_2"
_________________________________________________________________
Layer (type)                 Output Shape              Param #   
=================================================================
conv2d_3 (Conv2D)            (None, 158, 158, 32)      320       
_________________________________________________________________
activation_5 (Activation)    (None, 158, 158, 32)      0         
_________________________________________________________________
max_pooling2d_3 (MaxPooling2 (None, 79, 79, 32)        0         
_________________________________________________________________
conv2d_4 (Conv2D)            (None, 77, 77, 32)        9248      
_________________________________________________________________
activation_6 (Activation)    (None, 77, 77, 32)        0         
_________________________________________________________________
max_pooling2d_4 (MaxPooling2 (None, 38, 38, 32)        0         
_________________________________________________________________
conv2d_5 (Conv2D)            (None, 36, 36, 32)        9248      
_________________________________________________________________
activation_7 (Activation)    (None, 36, 36, 32)        0         
_________________________________________________________________
max_pooling2d_5 (MaxPooling2 (None, 18, 18, 32)        0         
_________________________________________________________________
flatten_2 (Flatten)          (None, 10368)             0         
_________________________________________________________________
dense_2 (Dense)              (None, 10)                103690    
_________________________________________________________________
activation_8 (Activation)    (None, 10)                0         
=================================================================
Total params: 122,506
Trainable params: 122,506
Non-trainable params: 0
_________________________________________________________________
Epoch 1/20
20/20 [==============================] - 9s 438ms/step - loss: 2.3446 - accuracy: 0.0796 - val_loss: 2.3027 - val_accuracy: 0.0938
Epoch 2/20
20/20 [==============================] - 8s 385ms/step - loss: 2.3023 - accuracy: 0.1076 - val_loss: 2.3021 - val_accuracy: 0.0750
…
20/20 [==============================] - 9s 450ms/step - loss: 0.2708 - accuracy: 0.9449 - val_loss: 1.8599 - val_accuracy: 0.4313
Epoch 19/20
20/20 [==============================] - 9s 428ms/step - loss: 0.2220 - accuracy: 0.9478 - val_loss: 1.8896 - val_accuracy: 0.4500
Epoch 20/20
20/20 [==============================] - 9s 438ms/step - loss: 0.1082 - accuracy: 0.9923 - val_loss: 1.9016 - val_accuracy: 0.4938
FingerPrints-1-64-nodes-0-dense-1608484301
Model: "sequential_3"
_________________________________________________________________
Layer (type)                 Output Shape              Param #   
=================================================================
conv2d_6 (Conv2D)            (None, 158, 158, 64)      640       
_________________________________________________________________
activation_9 (Activation)    (None, 158, 158, 64)      0         
_________________________________________________________________
max_pooling2d_6 (MaxPooling2 (None, 79, 79, 64)        0         
_________________________________________________________________
flatten_3 (Flatten)          (None, 399424)            0         
_________________________________________________________________
dense_3 (Dense)              (None, 10)                3994250   
_________________________________________________________________
activation_10 (Activation)   (None, 10)                0         
=================================================================
Total params: 3,994,890
Trainable params: 3,994,890
Non-trainable params: 0
_________________________________________________________________
Epoch 1/20
20/20 [==============================] - 9s 457ms/step - loss: 20.0304 - accuracy: 0.1076 - val_loss: 4.9906 - val_accuracy: 0.1000
Epoch 2/20
20/20 [==============================] - 9s 429ms/step - loss: 4.1089 - accuracy: 0.2318 - val_loss: 2.6025 - val_accuracy: 0.1000
…
20/20 [==============================] - 9s 462ms/step - loss: 0.0076 - accuracy: 1.0000 - val_loss: 2.5078 - val_accuracy: 0.3875
Epoch 19/20
20/20 [==============================] - 10s 480ms/step - loss: 0.0068 - accuracy: 1.0000 - val_loss: 2.5567 - val_accuracy: 0.4062
Epoch 20/20
20/20 [==============================] - 9s 453ms/step - loss: 0.0050 - accuracy: 1.0000 - val_loss: 2.5285 - val_accuracy: 0.3875
FingerPrints-2-64-nodes-0-dense-1608484477
Model: "sequential_4"
_________________________________________________________________
Layer (type)                 Output Shape              Param #   
=================================================================
conv2d_7 (Conv2D)            (None, 158, 158, 64)      640       
_________________________________________________________________
activation_11 (Activation)   (None, 158, 158, 64)      0         
_________________________________________________________________
max_pooling2d_7 (MaxPooling2 (None, 79, 79, 64)        0         
_________________________________________________________________
conv2d_8 (Conv2D)            (None, 77, 77, 64)        36928     
_________________________________________________________________
activation_12 (Activation)   (None, 77, 77, 64)        0         
_________________________________________________________________
max_pooling2d_8 (MaxPooling2 (None, 38, 38, 64)        0         
_________________________________________________________________
flatten_4 (Flatten)          (None, 92416)             0         
_________________________________________________________________
dense_4 (Dense)              (None, 10)                924170    
_________________________________________________________________
activation_13 (Activation)   (None, 10)                0         
=================================================================
Total params: 961,738
Trainable params: 961,738
Non-trainable params: 0
_________________________________________________________________
Epoch 1/20
20/20 [==============================] - 17s 842ms/step - loss: 3.2710 - accuracy: 0.1222 - val_loss: 2.3024 - val_accuracy: 0.1000
Epoch 2/20
20/20 [==============================] - 16s 817ms/step - loss: 2.2841 - accuracy: 0.1288 - val_loss: 2.2962 - val_accuracy: 0.1187
…
20/20 [==============================] - 16s 779ms/step - loss: 0.0074 - accuracy: 1.0000 - val_loss: 2.4062 - val_accuracy: 0.4750
Epoch 19/20
20/20 [==============================] - 15s 749ms/step - loss: 0.0065 - accuracy: 1.0000 - val_loss: 2.4032 - val_accuracy: 0.4750
Epoch 20/20
20/20 [==============================] - 16s 780ms/step - loss: 0.0049 - accuracy: 1.0000 - val_loss: 2.4758 - val_accuracy: 0.4688
FingerPrints-3-64-nodes-0-dense-1608484785
Model: "sequential_5"
_________________________________________________________________
Layer (type)                 Output Shape              Param #   
=================================================================
conv2d_9 (Conv2D)            (None, 158, 158, 64)      640       
_________________________________________________________________
activation_14 (Activation)   (None, 158, 158, 64)      0         
_________________________________________________________________
max_pooling2d_9 (MaxPooling2 (None, 79, 79, 64)        0         
_________________________________________________________________
conv2d_10 (Conv2D)           (None, 77, 77, 64)        36928     
_________________________________________________________________
activation_15 (Activation)   (None, 77, 77, 64)        0         
_________________________________________________________________
max_pooling2d_10 (MaxPooling (None, 38, 38, 64)        0         
_________________________________________________________________
conv2d_11 (Conv2D)           (None, 36, 36, 64)        36928     
_________________________________________________________________
activation_16 (Activation)   (None, 36, 36, 64)        0         
_________________________________________________________________
max_pooling2d_11 (MaxPooling (None, 18, 18, 64)        0         
_________________________________________________________________
flatten_5 (Flatten)          (None, 20736)             0         
_________________________________________________________________
dense_5 (Dense)              (None, 10)                207370    
_________________________________________________________________
activation_17 (Activation)   (None, 10)                0         
=================================================================
Total params: 281,866
Trainable params: 281,866
Non-trainable params: 0
_________________________________________________________________
Epoch 1/20
20/20 [==============================] - 18s 885ms/step - loss: 2.3451 - accuracy: 0.1244 - val_loss: 2.2999 - val_accuracy: 0.1125
Epoch 2/20
20/20 [==============================] - 17s 839ms/step - loss: 2.2929 - accuracy: 0.1243 - val_loss: 2.3102 - val_accuracy: 0.0875
…
20/20 [==============================] - 16s 806ms/step - loss: 0.3607 - accuracy: 0.9202 - val_loss: 1.1227 - val_accuracy: 0.6562
Epoch 19/20
20/20 [==============================] - 16s 805ms/step - loss: 0.2668 - accuracy: 0.9436 - val_loss: 1.0644 - val_accuracy: 0.6250
Epoch 20/20
20/20 [==============================] - 16s 811ms/step - loss: 0.2542 - accuracy: 0.9253 - val_loss: 1.1842 - val_accuracy: 0.6500
FingerPrints-1-128-nodes-0-dense-1608485115
Model: "sequential_6"
_________________________________________________________________
Layer (type)                 Output Shape              Param #   
=================================================================
conv2d_12 (Conv2D)           (None, 158, 158, 128)     1280      
_________________________________________________________________
activation_18 (Activation)   (None, 158, 158, 128)     0         
_________________________________________________________________
max_pooling2d_12 (MaxPooling (None, 79, 79, 128)       0         
_________________________________________________________________
flatten_6 (Flatten)          (None, 798848)            0         
_________________________________________________________________
dense_6 (Dense)              (None, 10)                7988490   
_________________________________________________________________
activation_19 (Activation)   (None, 10)                0         
=================================================================
Total params: 7,989,770
Trainable params: 7,989,770
Non-trainable params: 0
_________________________________________________________________
Epoch 1/20
20/20 [==============================] - 16s 769ms/step - loss: 27.9744 - accuracy: 0.0856 - val_loss: 4.1849 - val_accuracy: 0.0875
Epoch 2/20
20/20 [==============================] - 14s 713ms/step - loss: 3.0644 - accuracy: 0.2205 - val_loss: 2.3089 - val_accuracy: 0.1250
…
20/20 [==============================] - 14s 696ms/step - loss: 0.0064 - accuracy: 1.0000 - val_loss: 2.6810 - val_accuracy: 0.3625
Epoch 19/20
20/20 [==============================] - 14s 700ms/step - loss: 0.0055 - accuracy: 1.0000 - val_loss: 2.6736 - val_accuracy: 0.3063
Epoch 20/20
20/20 [==============================] - 14s 694ms/step - loss: 0.0046 - accuracy: 1.0000 - val_loss: 2.6439 - val_accuracy: 0.3500
FingerPrints-2-128-nodes-0-dense-1608485400
Model: "sequential_7"
_________________________________________________________________
Layer (type)                 Output Shape              Param #   
=================================================================
conv2d_13 (Conv2D)           (None, 158, 158, 128)     1280      
_________________________________________________________________
activation_20 (Activation)   (None, 158, 158, 128)     0         
_________________________________________________________________
max_pooling2d_13 (MaxPooling (None, 79, 79, 128)       0         
_________________________________________________________________
conv2d_14 (Conv2D)           (None, 77, 77, 128)       147584    
_________________________________________________________________
activation_21 (Activation)   (None, 77, 77, 128)       0         
_________________________________________________________________
max_pooling2d_14 (MaxPooling (None, 38, 38, 128)       0         
_________________________________________________________________
flatten_7 (Flatten)          (None, 184832)            0         
_________________________________________________________________
dense_7 (Dense)              (None, 10)                1848330   
_________________________________________________________________
activation_22 (Activation)   (None, 10)                0         
=================================================================
Total params: 1,997,194
Trainable params: 1,997,194
Non-trainable params: 0
_________________________________________________________________
Epoch 1/20
20/20 [==============================] - 33s 2s/step - loss: 5.0733 - accuracy: 0.0791 - val_loss: 2.3027 - val_accuracy: 0.0938
Epoch 2/20
20/20 [==============================] - 31s 2s/step - loss: 2.3005 - accuracy: 0.1201 - val_loss: 2.3024 - val_accuracy: 0.1250
…
20/20 [==============================] - 32s 2s/step - loss: 0.0069 - accuracy: 1.0000 - val_loss: 3.8352 - val_accuracy: 0.3250
Epoch 19/20
20/20 [==============================] - 32s 2s/step - loss: 0.0064 - accuracy: 1.0000 - val_loss: 3.9220 - val_accuracy: 0.3313
Epoch 20/20
20/20 [==============================] - 32s 2s/step - loss: 0.0051 - accuracy: 1.0000 - val_loss: 3.9640 - val_accuracy: 0.3250
FingerPrints-3-128-nodes-0-dense-1608486035
Model: "sequential_8"
_________________________________________________________________
Layer (type)                 Output Shape              Param #   
=================================================================
conv2d_15 (Conv2D)           (None, 158, 158, 128)     1280      
_________________________________________________________________
activation_23 (Activation)   (None, 158, 158, 128)     0         
_________________________________________________________________
max_pooling2d_15 (MaxPooling (None, 79, 79, 128)       0         
_________________________________________________________________
conv2d_16 (Conv2D)           (None, 77, 77, 128)       147584    
_________________________________________________________________
activation_24 (Activation)   (None, 77, 77, 128)       0         
_________________________________________________________________
max_pooling2d_16 (MaxPooling (None, 38, 38, 128)       0         
_________________________________________________________________
conv2d_17 (Conv2D)           (None, 36, 36, 128)       147584    
_________________________________________________________________
activation_25 (Activation)   (None, 36, 36, 128)       0         
_________________________________________________________________
max_pooling2d_17 (MaxPooling (None, 18, 18, 128)       0         
_________________________________________________________________
flatten_8 (Flatten)          (None, 41472)             0         
_________________________________________________________________
dense_8 (Dense)              (None, 10)                414730    
_________________________________________________________________
activation_26 (Activation)   (None, 10)                0         
=================================================================
Total params: 711,178
Trainable params: 711,178
Non-trainable params: 0
_________________________________________________________________
Epoch 1/20
20/20 [==============================] - 37s 2s/step - loss: 2.3901 - accuracy: 0.1070 - val_loss: 2.3027 - val_accuracy: 0.0875
Epoch 2/20
20/20 [==============================] - 35s 2s/step - loss: 2.3031 - accuracy: 0.1038 - val_loss: 2.3029 - val_accuracy: 0.0875
…
20/20 [==============================] - 35s 2s/step - loss: 2.3038 - accuracy: 0.0934 - val_loss: 2.3055 - val_accuracy: 0.0812
Epoch 19/20
20/20 [==============================] - 36s 2s/step - loss: 2.3025 - accuracy: 0.0925 - val_loss: 2.3056 - val_accuracy: 0.0812
Epoch 20/20
20/20 [==============================] - 35s 2s/step - loss: 2.3011 - accuracy: 0.1165 - val_loss: 2.3059 - val_accuracy: 0.0812
FingerPrints-1-32-nodes-1-dense-1608486744
Model: "sequential_9"
_________________________________________________________________
Layer (type)                 Output Shape              Param #   
=================================================================
conv2d_18 (Conv2D)           (None, 158, 158, 32)      320       
_________________________________________________________________
activation_27 (Activation)   (None, 158, 158, 32)      0         
_________________________________________________________________
max_pooling2d_18 (MaxPooling (None, 79, 79, 32)        0         
_________________________________________________________________
flatten_9 (Flatten)          (None, 199712)            0         
_________________________________________________________________
dense_9 (Dense)              (None, 32)                6390816   
_________________________________________________________________
activation_28 (Activation)   (None, 32)                0         
_________________________________________________________________
dropout (Dropout)            (None, 32)                0         
_________________________________________________________________
dense_10 (Dense)             (None, 10)                330       
_________________________________________________________________
activation_29 (Activation)   (None, 10)                0         
=================================================================
Total params: 6,391,466
Trainable params: 6,391,466
Non-trainable params: 0
_________________________________________________________________
Epoch 1/20
20/20 [==============================] - 6s 257ms/step - loss: 9.4768 - accuracy: 0.1229 - val_loss: 2.3025 - val_accuracy: 0.1000
Epoch 2/20
20/20 [==============================] - 4s 224ms/step - loss: 2.3026 - accuracy: 0.0996 - val_loss: 2.3026 - val_accuracy: 0.1000
…
20/20 [==============================] - 5s 236ms/step - loss: 2.3025 - accuracy: 0.0975 - val_loss: 2.3049 - val_accuracy: 0.0812
Epoch 19/20
20/20 [==============================] - 5s 229ms/step - loss: 2.3013 - accuracy: 0.1173 - val_loss: 2.3050 - val_accuracy: 0.0812
Epoch 20/20
20/20 [==============================] - 5s 230ms/step - loss: 2.3021 - accuracy: 0.1111 - val_loss: 2.3051 - val_accuracy: 0.0812
FingerPrints-2-32-nodes-1-dense-1608486835
Model: "sequential_10"
_________________________________________________________________
Layer (type)                 Output Shape              Param #   
=================================================================
conv2d_19 (Conv2D)           (None, 158, 158, 32)      320       
_________________________________________________________________
activation_30 (Activation)   (None, 158, 158, 32)      0         
_________________________________________________________________
max_pooling2d_19 (MaxPooling (None, 79, 79, 32)        0         
_________________________________________________________________
conv2d_20 (Conv2D)           (None, 77, 77, 32)        9248      
_________________________________________________________________
activation_31 (Activation)   (None, 77, 77, 32)        0         
_________________________________________________________________
max_pooling2d_20 (MaxPooling (None, 38, 38, 32)        0         
_________________________________________________________________
flatten_10 (Flatten)         (None, 46208)             0         
_________________________________________________________________
dense_11 (Dense)             (None, 32)                1478688   
_________________________________________________________________
activation_32 (Activation)   (None, 32)                0         
_________________________________________________________________
dropout_1 (Dropout)          (None, 32)                0         
_________________________________________________________________
dense_12 (Dense)             (None, 10)                330       
_________________________________________________________________
activation_33 (Activation)   (None, 10)                0         
=================================================================
Total params: 1,488,586
Trainable params: 1,488,586
Non-trainable params: 0
_________________________________________________________________
Epoch 1/20
20/20 [==============================] - 8s 395ms/step - loss: 3.3414 - accuracy: 0.1191 - val_loss: 2.3000 - val_accuracy: 0.1000
Epoch 2/20
20/20 [==============================] - 7s 341ms/step - loss: 2.2962 - accuracy: 0.0928 - val_loss: 2.2958 - val_accuracy: 0.0812
…
20/20 [==============================] - 7s 350ms/step - loss: 0.4129 - accuracy: 0.8598 - val_loss: 2.1896 - val_accuracy: 0.4000
Epoch 19/20
20/20 [==============================] - 7s 346ms/step - loss: 0.4182 - accuracy: 0.8652 - val_loss: 2.4301 - val_accuracy: 0.3187
Epoch 20/20
20/20 [==============================] - 7s 347ms/step - loss: 0.4849 - accuracy: 0.8264 - val_loss: 2.3173 - val_accuracy: 0.4437
FingerPrints-3-32-nodes-1-dense-1608486975
Model: "sequential_11"
_________________________________________________________________
Layer (type)                 Output Shape              Param #   
=================================================================
conv2d_21 (Conv2D)           (None, 158, 158, 32)      320       
_________________________________________________________________
activation_34 (Activation)   (None, 158, 158, 32)      0         
_________________________________________________________________
max_pooling2d_21 (MaxPooling (None, 79, 79, 32)        0         
_________________________________________________________________
conv2d_22 (Conv2D)           (None, 77, 77, 32)        9248      
_________________________________________________________________
activation_35 (Activation)   (None, 77, 77, 32)        0         
_________________________________________________________________
max_pooling2d_22 (MaxPooling (None, 38, 38, 32)        0         
_________________________________________________________________
conv2d_23 (Conv2D)           (None, 36, 36, 32)        9248      
_________________________________________________________________
activation_36 (Activation)   (None, 36, 36, 32)        0         
_________________________________________________________________
max_pooling2d_23 (MaxPooling (None, 18, 18, 32)        0         
_________________________________________________________________
flatten_11 (Flatten)         (None, 10368)             0         
_________________________________________________________________
dense_13 (Dense)             (None, 32)                331808    
_________________________________________________________________
activation_37 (Activation)   (None, 32)                0         
_________________________________________________________________
dropout_2 (Dropout)          (None, 32)                0         
_________________________________________________________________
dense_14 (Dense)             (None, 10)                330       
_________________________________________________________________
activation_38 (Activation)   (None, 10)                0         
=================================================================
Total params: 350,954
Trainable params: 350,954
Non-trainable params: 0
_________________________________________________________________
Epoch 1/20
20/20 [==============================] - 9s 413ms/step - loss: 2.3356 - accuracy: 0.1104 - val_loss: 2.3074 - val_accuracy: 0.0875
Epoch 2/20
20/20 [==============================] - 7s 367ms/step - loss: 2.2989 - accuracy: 0.0966 - val_loss: 2.2992 - val_accuracy: 0.1000
…
20/20 [==============================] - 8s 381ms/step - loss: 0.4384 - accuracy: 0.8401 - val_loss: 1.1582 - val_accuracy: 0.6438
Epoch 19/20
20/20 [==============================] - 8s 382ms/step - loss: 0.4659 - accuracy: 0.8470 - val_loss: 1.2835 - val_accuracy: 0.6250
Epoch 20/20
20/20 [==============================] - 7s 376ms/step - loss: 0.3836 - accuracy: 0.8866 - val_loss: 1.1456 - val_accuracy: 0.6313
FingerPrints-1-64-nodes-1-dense-1608487126
Model: "sequential_12"
_________________________________________________________________
Layer (type)                 Output Shape              Param #   
=================================================================
conv2d_24 (Conv2D)           (None, 158, 158, 64)      640       
_________________________________________________________________
activation_39 (Activation)   (None, 158, 158, 64)      0         
_________________________________________________________________
max_pooling2d_24 (MaxPooling (None, 79, 79, 64)        0         
_________________________________________________________________
flatten_12 (Flatten)         (None, 399424)            0         
_________________________________________________________________
dense_15 (Dense)             (None, 32)                12781600  
_________________________________________________________________
activation_40 (Activation)   (None, 32)                0         
_________________________________________________________________
dropout_3 (Dropout)          (None, 32)                0         
_________________________________________________________________
dense_16 (Dense)             (None, 10)                330       
_________________________________________________________________
activation_41 (Activation)   (None, 10)                0         
=================================================================
Total params: 12,782,570
Trainable params: 12,782,570
Non-trainable params: 0
_________________________________________________________________
Epoch 1/20
20/20 [==============================] - 9s 448ms/step - loss: 18.2587 - accuracy: 0.0950 - val_loss: 2.3028 - val_accuracy: 0.0875
Epoch 2/20
20/20 [==============================] - 8s 412ms/step - loss: 2.3014 - accuracy: 0.0956 - val_loss: 2.3030 - val_accuracy: 0.0812
…
20/20 [==============================] - 8s 413ms/step - loss: 2.2854 - accuracy: 0.1127 - val_loss: 2.3057 - val_accuracy: 0.0875
Epoch 19/20
20/20 [==============================] - 8s 410ms/step - loss: 2.2892 - accuracy: 0.1241 - val_loss: 2.3056 - val_accuracy: 0.0938
Epoch 20/20
20/20 [==============================] - 8s 413ms/step - loss: 2.2676 - accuracy: 0.1176 - val_loss: 2.4114 - val_accuracy: 0.1000
FingerPrints-2-64-nodes-1-dense-1608487294
Model: "sequential_13"
_________________________________________________________________
Layer (type)                 Output Shape              Param #   
=================================================================
conv2d_25 (Conv2D)           (None, 158, 158, 64)      640       
_________________________________________________________________
activation_42 (Activation)   (None, 158, 158, 64)      0         
_________________________________________________________________
max_pooling2d_25 (MaxPooling (None, 79, 79, 64)        0         
_________________________________________________________________
conv2d_26 (Conv2D)           (None, 77, 77, 64)        36928     
_________________________________________________________________
activation_43 (Activation)   (None, 77, 77, 64)        0         
_________________________________________________________________
max_pooling2d_26 (MaxPooling (None, 38, 38, 64)        0         
_________________________________________________________________
flatten_13 (Flatten)         (None, 92416)             0         
_________________________________________________________________
dense_17 (Dense)             (None, 32)                2957344   
_________________________________________________________________
activation_44 (Activation)   (None, 32)                0         
_________________________________________________________________
dropout_4 (Dropout)          (None, 32)                0         
_________________________________________________________________
dense_18 (Dense)             (None, 10)                330       
_________________________________________________________________
activation_45 (Activation)   (None, 10)                0         
=================================================================
Total params: 2,995,242
Trainable params: 2,995,242
Non-trainable params: 0
_________________________________________________________________
Epoch 1/20
20/20 [==============================] - 15s 739ms/step - loss: 2.9515 - accuracy: 0.1033 - val_loss: 2.3100 - val_accuracy: 0.0875
Epoch 2/20
20/20 [==============================] - 14s 705ms/step - loss: 2.2885 - accuracy: 0.1454 - val_loss: 2.2998 - val_accuracy: 0.1250
…
20/20 [==============================] - 14s 723ms/step - loss: 0.1211 - accuracy: 0.9733 - val_loss: 2.3372 - val_accuracy: 0.4375
Epoch 19/20
20/20 [==============================] - 14s 725ms/step - loss: 0.1483 - accuracy: 0.9658 - val_loss: 2.8022 - val_accuracy: 0.3750
Epoch 20/20
20/20 [==============================] - 14s 721ms/step - loss: 0.1404 - accuracy: 0.9637 - val_loss: 2.8373 - val_accuracy: 0.3375
FingerPrints-3-64-nodes-1-dense-1608487581
Model: "sequential_14"
_________________________________________________________________
Layer (type)                 Output Shape              Param #   
=================================================================
conv2d_27 (Conv2D)           (None, 158, 158, 64)      640       
_________________________________________________________________
activation_46 (Activation)   (None, 158, 158, 64)      0         
_________________________________________________________________
max_pooling2d_27 (MaxPooling (None, 79, 79, 64)        0         
_________________________________________________________________
conv2d_28 (Conv2D)           (None, 77, 77, 64)        36928     
_________________________________________________________________
activation_47 (Activation)   (None, 77, 77, 64)        0         
_________________________________________________________________
max_pooling2d_28 (MaxPooling (None, 38, 38, 64)        0         
_________________________________________________________________
conv2d_29 (Conv2D)           (None, 36, 36, 64)        36928     
_________________________________________________________________
activation_48 (Activation)   (None, 36, 36, 64)        0         
_________________________________________________________________
max_pooling2d_29 (MaxPooling (None, 18, 18, 64)        0         
_________________________________________________________________
flatten_14 (Flatten)         (None, 20736)             0         
_________________________________________________________________
dense_19 (Dense)             (None, 32)                663584    
_________________________________________________________________
activation_49 (Activation)   (None, 32)                0         
_________________________________________________________________
dropout_5 (Dropout)          (None, 32)                0         
_________________________________________________________________
dense_20 (Dense)             (None, 10)                330       
_________________________________________________________________
activation_50 (Activation)   (None, 10)                0         
=================================================================
Total params: 738,410
Trainable params: 738,410
Non-trainable params: 0
_________________________________________________________________
Epoch 1/20
20/20 [==============================] - 17s 823ms/step - loss: 2.3451 - accuracy: 0.0864 - val_loss: 2.3026 - val_accuracy: 0.1063
Epoch 2/20
20/20 [==============================] - 16s 778ms/step - loss: 2.3030 - accuracy: 0.0922 - val_loss: 2.3031 - val_accuracy: 0.0875
…
20/20 [==============================] - 15s 760ms/step - loss: 2.3029 - accuracy: 0.0947 - val_loss: 2.3072 - val_accuracy: 0.0812
Epoch 19/20
20/20 [==============================] - 15s 765ms/step - loss: 2.3013 - accuracy: 0.0990 - val_loss: 2.3076 - val_accuracy: 0.0812
Epoch 20/20
20/20 [==============================] - 15s 762ms/step - loss: 2.2998 - accuracy: 0.1114 - val_loss: 2.3080 - val_accuracy: 0.0812
FingerPrints-1-128-nodes-1-dense-1608487892
Model: "sequential_15"
_________________________________________________________________
Layer (type)                 Output Shape              Param #   
=================================================================
conv2d_30 (Conv2D)           (None, 158, 158, 128)     1280      
_________________________________________________________________
activation_51 (Activation)   (None, 158, 158, 128)     0         
_________________________________________________________________
max_pooling2d_30 (MaxPooling (None, 79, 79, 128)       0         
_________________________________________________________________
flatten_15 (Flatten)         (None, 798848)            0         
_________________________________________________________________
dense_21 (Dense)             (None, 32)                25563168  
_________________________________________________________________
activation_52 (Activation)   (None, 32)                0         
_________________________________________________________________
dropout_6 (Dropout)          (None, 32)                0         
_________________________________________________________________
dense_22 (Dense)             (None, 10)                330       
_________________________________________________________________
activation_53 (Activation)   (None, 10)                0         
=================================================================
Total params: 25,564,778
Trainable params: 25,564,778
Non-trainable params: 0
_________________________________________________________________
Epoch 1/20
20/20 [==============================] - 16s 807ms/step - loss: 12.9151 - accuracy: 0.1010 - val_loss: 2.3023 - val_accuracy: 0.1063
Epoch 2/20
20/20 [==============================] - 15s 767ms/step - loss: 2.3026 - accuracy: 0.1000 - val_loss: 2.3024 - val_accuracy: 0.1063
…
20/20 [==============================] - 15s 764ms/step - loss: 2.3022 - accuracy: 0.1150 - val_loss: 2.3051 - val_accuracy: 0.0875
Epoch 19/20
20/20 [==============================] - 15s 759ms/step - loss: 2.3032 - accuracy: 0.1028 - val_loss: 2.3052 - val_accuracy: 0.0875
Epoch 20/20
20/20 [==============================] - 15s 762ms/step - loss: 2.3019 - accuracy: 0.0896 - val_loss: 2.3054 - val_accuracy: 0.0875
FingerPrints-2-128-nodes-1-dense-1608488199
Model: "sequential_16"
_________________________________________________________________
Layer (type)                 Output Shape              Param #   
=================================================================
conv2d_31 (Conv2D)           (None, 158, 158, 128)     1280      
_________________________________________________________________
activation_54 (Activation)   (None, 158, 158, 128)     0         
_________________________________________________________________
max_pooling2d_31 (MaxPooling (None, 79, 79, 128)       0         
_________________________________________________________________
conv2d_32 (Conv2D)           (None, 77, 77, 128)       147584    
_________________________________________________________________
activation_55 (Activation)   (None, 77, 77, 128)       0         
_________________________________________________________________
max_pooling2d_32 (MaxPooling (None, 38, 38, 128)       0         
_________________________________________________________________
flatten_16 (Flatten)         (None, 184832)            0         
_________________________________________________________________
dense_23 (Dense)             (None, 32)                5914656   
_________________________________________________________________
activation_56 (Activation)   (None, 32)                0         
_________________________________________________________________
dropout_7 (Dropout)          (None, 32)                0         
_________________________________________________________________
dense_24 (Dense)             (None, 10)                330       
_________________________________________________________________
activation_57 (Activation)   (None, 10)                0         
=================================================================
Total params: 6,063,850
Trainable params: 6,063,850
Non-trainable params: 0
_________________________________________________________________
Epoch 1/20
20/20 [==============================] - 33s 2s/step - loss: 3.4603 - accuracy: 0.0903 - val_loss: 2.3033 - val_accuracy: 0.0875
Epoch 2/20
20/20 [==============================] - 31s 2s/step - loss: 2.3015 - accuracy: 0.1084 - val_loss: 2.3029 - val_accuracy: 0.0875
…
20/20 [==============================] - 32s 2s/step - loss: 0.4301 - accuracy: 0.8780 - val_loss: 4.7819 - val_accuracy: 0.2812
Epoch 19/20
20/20 [==============================] - 32s 2s/step - loss: 0.2882 - accuracy: 0.9130 - val_loss: 5.2553 - val_accuracy: 0.2625
Epoch 20/20
20/20 [==============================] - 34s 2s/step - loss: 0.2900 - accuracy: 0.9111 - val_loss: 5.2903 - val_accuracy: 0.2688
FingerPrints-3-128-nodes-1-dense-1608488842
Model: "sequential_17"
_________________________________________________________________
Layer (type)                 Output Shape              Param #   
=================================================================
conv2d_33 (Conv2D)           (None, 158, 158, 128)     1280      
_________________________________________________________________
activation_58 (Activation)   (None, 158, 158, 128)     0         
_________________________________________________________________
max_pooling2d_33 (MaxPooling (None, 79, 79, 128)       0         
_________________________________________________________________
conv2d_34 (Conv2D)           (None, 77, 77, 128)       147584    
_________________________________________________________________
activation_59 (Activation)   (None, 77, 77, 128)       0         
_________________________________________________________________
max_pooling2d_34 (MaxPooling (None, 38, 38, 128)       0         
_________________________________________________________________
conv2d_35 (Conv2D)           (None, 36, 36, 128)       147584    
_________________________________________________________________
activation_60 (Activation)   (None, 36, 36, 128)       0         
_________________________________________________________________
max_pooling2d_35 (MaxPooling (None, 18, 18, 128)       0         
_________________________________________________________________
flatten_17 (Flatten)         (None, 41472)             0         
_________________________________________________________________
dense_25 (Dense)             (None, 32)                1327136   
_________________________________________________________________
activation_61 (Activation)   (None, 32)                0         
_________________________________________________________________
dropout_8 (Dropout)          (None, 32)                0         
_________________________________________________________________
dense_26 (Dense)             (None, 10)                330       
_________________________________________________________________
activation_62 (Activation)   (None, 10)                0         
=================================================================
Total params: 1,623,914
Trainable params: 1,623,914
Non-trainable params: 0
_________________________________________________________________
Epoch 1/20
20/20 [==============================] - 38s 2s/step - loss: 2.3938 - accuracy: 0.0995 - val_loss: 2.3079 - val_accuracy: 0.0875
Epoch 2/20
20/20 [==============================] - 35s 2s/step - loss: 2.3026 - accuracy: 0.0835 - val_loss: 2.3029 - val_accuracy: 0.0875
…
20/20 [==============================] - 36s 2s/step - loss: 2.3026 - accuracy: 0.0835 - val_loss: 2.3059 - val_accuracy: 0.0875
Epoch 19/20
20/20 [==============================] - 35s 2s/step - loss: 2.3021 - accuracy: 0.0820 - val_loss: 2.3061 - val_accuracy: 0.0875
Epoch 20/20
20/20 [==============================] - 35s 2s/step - loss: 2.3022 - accuracy: 0.0758 - val_loss: 2.3062 - val_accuracy: 0.0812
FingerPrints-1-32-nodes-2-dense-1608489561
Model: "sequential_18"
_________________________________________________________________
Layer (type)                 Output Shape              Param #   
=================================================================
conv2d_36 (Conv2D)           (None, 158, 158, 32)      320       
_________________________________________________________________
activation_63 (Activation)   (None, 158, 158, 32)      0         
_________________________________________________________________
max_pooling2d_36 (MaxPooling (None, 79, 79, 32)        0         
_________________________________________________________________
flatten_18 (Flatten)         (None, 199712)            0         
_________________________________________________________________
dense_27 (Dense)             (None, 32)                6390816   
_________________________________________________________________
activation_64 (Activation)   (None, 32)                0         
_________________________________________________________________
dropout_9 (Dropout)          (None, 32)                0         
_________________________________________________________________
dense_28 (Dense)             (None, 32)                1056      
_________________________________________________________________
activation_65 (Activation)   (None, 32)                0         
_________________________________________________________________
dropout_10 (Dropout)         (None, 32)                0         
_________________________________________________________________
dense_29 (Dense)             (None, 10)                330       
_________________________________________________________________
activation_66 (Activation)   (None, 10)                0         
=================================================================
Total params: 6,392,522
Trainable params: 6,392,522
Non-trainable params: 0
_________________________________________________________________
Epoch 1/20
20/20 [==============================] - 6s 266ms/step - loss: 3.6712 - accuracy: 0.1160 - val_loss: 2.3028 - val_accuracy: 0.0875
Epoch 2/20
20/20 [==============================] - 4s 220ms/step - loss: 2.3017 - accuracy: 0.1194 - val_loss: 2.3034 - val_accuracy: 0.0875
…
20/20 [==============================] - 4s 222ms/step - loss: 2.3019 - accuracy: 0.1037 - val_loss: 2.3060 - val_accuracy: 0.0812
Epoch 19/20
20/20 [==============================] - 4s 223ms/step - loss: 2.3028 - accuracy: 0.0985 - val_loss: 2.3061 - val_accuracy: 0.0812
Epoch 20/20
20/20 [==============================] - 4s 224ms/step - loss: 2.3017 - accuracy: 0.1145 - val_loss: 2.3064 - val_accuracy: 0.0812
FingerPrints-2-32-nodes-2-dense-1608489651
Model: "sequential_19"
_________________________________________________________________
Layer (type)                 Output Shape              Param #   
=================================================================
conv2d_37 (Conv2D)           (None, 158, 158, 32)      320       
_________________________________________________________________
activation_67 (Activation)   (None, 158, 158, 32)      0         
_________________________________________________________________
max_pooling2d_37 (MaxPooling (None, 79, 79, 32)        0         
_________________________________________________________________
conv2d_38 (Conv2D)           (None, 77, 77, 32)        9248      
_________________________________________________________________
activation_68 (Activation)   (None, 77, 77, 32)        0         
_________________________________________________________________
max_pooling2d_38 (MaxPooling (None, 38, 38, 32)        0         
_________________________________________________________________
flatten_19 (Flatten)         (None, 46208)             0         
_________________________________________________________________
dense_30 (Dense)             (None, 32)                1478688   
_________________________________________________________________
activation_69 (Activation)   (None, 32)                0         
_________________________________________________________________
dropout_11 (Dropout)         (None, 32)                0         
_________________________________________________________________
dense_31 (Dense)             (None, 32)                1056      
_________________________________________________________________
activation_70 (Activation)   (None, 32)                0         
_________________________________________________________________
dropout_12 (Dropout)         (None, 32)                0         
_________________________________________________________________
dense_32 (Dense)             (None, 10)                330       
_________________________________________________________________
activation_71 (Activation)   (None, 10)                0         
=================================================================
Total params: 1,489,642
Trainable params: 1,489,642
Non-trainable params: 0
_________________________________________________________________
Epoch 1/20
20/20 [==============================] - 8s 381ms/step - loss: 2.3772 - accuracy: 0.0882 - val_loss: 2.3024 - val_accuracy: 0.0938
Epoch 2/20
20/20 [==============================] - 7s 335ms/step - loss: 2.3012 - accuracy: 0.1049 - val_loss: 2.3049 - val_accuracy: 0.1250
…
20/20 [==============================] - 7s 342ms/step - loss: 1.0735 - accuracy: 0.5956 - val_loss: 2.1036 - val_accuracy: 0.3625
Epoch 19/20
20/20 [==============================] - 7s 341ms/step - loss: 0.9341 - accuracy: 0.6417 - val_loss: 2.1479 - val_accuracy: 0.3375
Epoch 20/20
20/20 [==============================] - 7s 343ms/step - loss: 0.8762 - accuracy: 0.6858 - val_loss: 1.8878 - val_accuracy: 0.3750
FingerPrints-3-32-nodes-2-dense-1608489788
Model: "sequential_20"
_________________________________________________________________
Layer (type)                 Output Shape              Param #   
=================================================================
conv2d_39 (Conv2D)           (None, 158, 158, 32)      320       
_________________________________________________________________
activation_72 (Activation)   (None, 158, 158, 32)      0         
_________________________________________________________________
max_pooling2d_39 (MaxPooling (None, 79, 79, 32)        0         
_________________________________________________________________
conv2d_40 (Conv2D)           (None, 77, 77, 32)        9248      
_________________________________________________________________
activation_73 (Activation)   (None, 77, 77, 32)        0         
_________________________________________________________________
max_pooling2d_40 (MaxPooling (None, 38, 38, 32)        0         
_________________________________________________________________
conv2d_41 (Conv2D)           (None, 36, 36, 32)        9248      
_________________________________________________________________
activation_74 (Activation)   (None, 36, 36, 32)        0         
_________________________________________________________________
max_pooling2d_41 (MaxPooling (None, 18, 18, 32)        0         
_________________________________________________________________
flatten_20 (Flatten)         (None, 10368)             0         
_________________________________________________________________
dense_33 (Dense)             (None, 32)                331808    
_________________________________________________________________
activation_75 (Activation)   (None, 32)                0         
_________________________________________________________________
dropout_13 (Dropout)         (None, 32)                0         
_________________________________________________________________
dense_34 (Dense)             (None, 32)                1056      
_________________________________________________________________
activation_76 (Activation)   (None, 32)                0         
_________________________________________________________________
dropout_14 (Dropout)         (None, 32)                0         
_________________________________________________________________
dense_35 (Dense)             (None, 10)                330       
_________________________________________________________________
activation_77 (Activation)   (None, 10)                0         
=================================================================
Total params: 352,010
Trainable params: 352,010
Non-trainable params: 0
_________________________________________________________________
Epoch 1/20
20/20 [==============================] - 9s 418ms/step - loss: 2.3267 - accuracy: 0.0879 - val_loss: 2.3019 - val_accuracy: 0.1000
Epoch 2/20
20/20 [==============================] - 7s 366ms/step - loss: 2.3010 - accuracy: 0.1258 - val_loss: 2.3029 - val_accuracy: 0.0812
…
20/20 [==============================] - 7s 368ms/step - loss: 1.6181 - accuracy: 0.3578 - val_loss: 1.6474 - val_accuracy: 0.4000
Epoch 19/20
20/20 [==============================] - 8s 391ms/step - loss: 1.5814 - accuracy: 0.4034 - val_loss: 1.3987 - val_accuracy: 0.5125
Epoch 20/20
20/20 [==============================] - 8s 384ms/step - loss: 1.4084 - accuracy: 0.4631 - val_loss: 1.3673 - val_accuracy: 0.4563
FingerPrints-1-64-nodes-2-dense-1608489937
Model: "sequential_21"
_________________________________________________________________
Layer (type)                 Output Shape              Param #   
=================================================================
conv2d_42 (Conv2D)           (None, 158, 158, 64)      640       
_________________________________________________________________
activation_78 (Activation)   (None, 158, 158, 64)      0         
_________________________________________________________________
max_pooling2d_42 (MaxPooling (None, 79, 79, 64)        0         
_________________________________________________________________
flatten_21 (Flatten)         (None, 399424)            0         
_________________________________________________________________
dense_36 (Dense)             (None, 32)                12781600  
_________________________________________________________________
activation_79 (Activation)   (None, 32)                0         
_________________________________________________________________
dropout_15 (Dropout)         (None, 32)                0         
_________________________________________________________________
dense_37 (Dense)             (None, 32)                1056      
_________________________________________________________________
activation_80 (Activation)   (None, 32)                0         
_________________________________________________________________
dropout_16 (Dropout)         (None, 32)                0         
_________________________________________________________________
dense_38 (Dense)             (None, 10)                330       
_________________________________________________________________
activation_81 (Activation)   (None, 10)                0         
=================================================================
Total params: 12,783,626
Trainable params: 12,783,626
Non-trainable params: 0
_________________________________________________________________
Epoch 1/20
20/20 [==============================] - 10s 490ms/step - loss: 8.5019 - accuracy: 0.0913 - val_loss: 2.3032 - val_accuracy: 0.0938
Epoch 2/20
20/20 [==============================] - 9s 432ms/step - loss: 2.3030 - accuracy: 0.0900 - val_loss: 2.3033 - val_accuracy: 0.1000
…
20/20 [==============================] - 8s 416ms/step - loss: 2.3014 - accuracy: 0.1072 - val_loss: 2.3063 - val_accuracy: 0.0812
Epoch 19/20
20/20 [==============================] - 8s 416ms/step - loss: 2.3019 - accuracy: 0.1135 - val_loss: 2.3065 - val_accuracy: 0.0812
Epoch 20/20
20/20 [==============================] - 8s 418ms/step - loss: 2.3020 - accuracy: 0.0992 - val_loss: 2.3065 - val_accuracy: 0.0812
FingerPrints-2-64-nodes-2-dense-1608490110
Model: "sequential_22"
_________________________________________________________________
Layer (type)                 Output Shape              Param #   
=================================================================
conv2d_43 (Conv2D)           (None, 158, 158, 64)      640       
_________________________________________________________________
activation_82 (Activation)   (None, 158, 158, 64)      0         
_________________________________________________________________
max_pooling2d_43 (MaxPooling (None, 79, 79, 64)        0         
_________________________________________________________________
conv2d_44 (Conv2D)           (None, 77, 77, 64)        36928     
_________________________________________________________________
activation_83 (Activation)   (None, 77, 77, 64)        0         
_________________________________________________________________
max_pooling2d_44 (MaxPooling (None, 38, 38, 64)        0         
_________________________________________________________________
flatten_22 (Flatten)         (None, 92416)             0         
_________________________________________________________________
dense_39 (Dense)             (None, 32)                2957344   
_________________________________________________________________
activation_84 (Activation)   (None, 32)                0         
_________________________________________________________________
dropout_17 (Dropout)         (None, 32)                0         
_________________________________________________________________
dense_40 (Dense)             (None, 32)                1056      
_________________________________________________________________
activation_85 (Activation)   (None, 32)                0         
_________________________________________________________________
dropout_18 (Dropout)         (None, 32)                0         
_________________________________________________________________
dense_41 (Dense)             (None, 10)                330       
_________________________________________________________________
activation_86 (Activation)   (None, 10)                0         
=================================================================
Total params: 2,996,298
Trainable params: 2,996,298
Non-trainable params: 0
_________________________________________________________________
Epoch 1/20
20/20 [==============================] - 16s 760ms/step - loss: 2.9582 - accuracy: 0.1146 - val_loss: 2.3032 - val_accuracy: 0.0688
Epoch 2/20
20/20 [==============================] - 14s 718ms/step - loss: 2.3027 - accuracy: 0.0783 - val_loss: 2.3047 - val_accuracy: 0.0938
…
20/20 [==============================] - 16s 788ms/step - loss: 0.8790 - accuracy: 0.7067 - val_loss: 2.2609 - val_accuracy: 0.3125
Epoch 19/20
20/20 [==============================] - 15s 770ms/step - loss: 0.8027 - accuracy: 0.7431 - val_loss: 2.4655 - val_accuracy: 0.3500
Epoch 20/20
20/20 [==============================] - 15s 756ms/step - loss: 0.7243 - accuracy: 0.7960 - val_loss: 2.3198 - val_accuracy: 0.2812
FingerPrints-3-64-nodes-2-dense-1608490410
Model: "sequential_23"
_________________________________________________________________
Layer (type)                 Output Shape              Param #   
=================================================================
conv2d_45 (Conv2D)           (None, 158, 158, 64)      640       
_________________________________________________________________
activation_87 (Activation)   (None, 158, 158, 64)      0         
_________________________________________________________________
max_pooling2d_45 (MaxPooling (None, 79, 79, 64)        0         
_________________________________________________________________
conv2d_46 (Conv2D)           (None, 77, 77, 64)        36928     
_________________________________________________________________
activation_88 (Activation)   (None, 77, 77, 64)        0         
_________________________________________________________________
max_pooling2d_46 (MaxPooling (None, 38, 38, 64)        0         
_________________________________________________________________
conv2d_47 (Conv2D)           (None, 36, 36, 64)        36928     
_________________________________________________________________
activation_89 (Activation)   (None, 36, 36, 64)        0         
_________________________________________________________________
max_pooling2d_47 (MaxPooling (None, 18, 18, 64)        0         
_________________________________________________________________
flatten_23 (Flatten)         (None, 20736)             0         
_________________________________________________________________
dense_42 (Dense)             (None, 32)                663584    
_________________________________________________________________
activation_90 (Activation)   (None, 32)                0         
_________________________________________________________________
dropout_19 (Dropout)         (None, 32)                0         
_________________________________________________________________
dense_43 (Dense)             (None, 32)                1056      
_________________________________________________________________
activation_91 (Activation)   (None, 32)                0         
_________________________________________________________________
dropout_20 (Dropout)         (None, 32)                0         
_________________________________________________________________
dense_44 (Dense)             (None, 10)                330       
_________________________________________________________________
activation_92 (Activation)   (None, 10)                0         
=================================================================
Total params: 739,466
Trainable params: 739,466
Non-trainable params: 0
_________________________________________________________________
Epoch 1/20
20/20 [==============================] - 18s 867ms/step - loss: 2.3364 - accuracy: 0.1286 - val_loss: 2.3075 - val_accuracy: 0.1063
Epoch 2/20
20/20 [==============================] - 16s 805ms/step - loss: 2.3028 - accuracy: 0.1230 - val_loss: 2.3110 - val_accuracy: 0.0875
…
20/20 [==============================] - 15s 774ms/step - loss: 1.8483 - accuracy: 0.3055 - val_loss: 1.8841 - val_accuracy: 0.3250
Epoch 19/20
20/20 [==============================] - 15s 775ms/step - loss: 1.7851 - accuracy: 0.3138 - val_loss: 1.7951 - val_accuracy: 0.3562
Epoch 20/20
20/20 [==============================] - 16s 791ms/step - loss: 1.7181 - accuracy: 0.3574 - val_loss: 1.5911 - val_accuracy: 0.4250
FingerPrints-1-128-nodes-2-dense-1608490729
Model: "sequential_24"
_________________________________________________________________
Layer (type)                 Output Shape              Param #   
=================================================================
conv2d_48 (Conv2D)           (None, 158, 158, 128)     1280      
_________________________________________________________________
activation_93 (Activation)   (None, 158, 158, 128)     0         
_________________________________________________________________
max_pooling2d_48 (MaxPooling (None, 79, 79, 128)       0         
_________________________________________________________________
flatten_24 (Flatten)         (None, 798848)            0         
_________________________________________________________________
dense_45 (Dense)             (None, 32)                25563168  
_________________________________________________________________
activation_94 (Activation)   (None, 32)                0         
_________________________________________________________________
dropout_21 (Dropout)         (None, 32)                0         
_________________________________________________________________
dense_46 (Dense)             (None, 32)                1056      
_________________________________________________________________
activation_95 (Activation)   (None, 32)                0         
_________________________________________________________________
dropout_22 (Dropout)         (None, 32)                0         
_________________________________________________________________
dense_47 (Dense)             (None, 10)                330       
_________________________________________________________________
activation_96 (Activation)   (None, 10)                0         
=================================================================
Total params: 25,565,834
Trainable params: 25,565,834
Non-trainable params: 0
_________________________________________________________________
Epoch 1/20
20/20 [==============================] - 17s 849ms/step - loss: 7.0842 - accuracy: 0.0714 - val_loss: 2.3031 - val_accuracy: 0.1063
Epoch 2/20
20/20 [==============================] - 16s 818ms/step - loss: 2.3019 - accuracy: 0.0991 - val_loss: 2.3034 - val_accuracy: 0.0812
…
20/20 [==============================] - 15s 774ms/step - loss: 2.3023 - accuracy: 0.1171 - val_loss: 2.3058 - val_accuracy: 0.0812
Epoch 19/20
20/20 [==============================] - 15s 769ms/step - loss: 2.3008 - accuracy: 0.1262 - val_loss: 2.3061 - val_accuracy: 0.0812
Epoch 20/20
20/20 [==============================] - 16s 801ms/step - loss: 2.3023 - accuracy: 0.1064 - val_loss: 2.3061 - val_accuracy: 0.0812
FingerPrints-2-128-nodes-2-dense-1608491048
Model: "sequential_25"
_________________________________________________________________
Layer (type)                 Output Shape              Param #   
=================================================================
conv2d_49 (Conv2D)           (None, 158, 158, 128)     1280      
_________________________________________________________________
activation_97 (Activation)   (None, 158, 158, 128)     0         
_________________________________________________________________
max_pooling2d_49 (MaxPooling (None, 79, 79, 128)       0         
_________________________________________________________________
conv2d_50 (Conv2D)           (None, 77, 77, 128)       147584    
_________________________________________________________________
activation_98 (Activation)   (None, 77, 77, 128)       0         
_________________________________________________________________
max_pooling2d_50 (MaxPooling (None, 38, 38, 128)       0         
_________________________________________________________________
flatten_25 (Flatten)         (None, 184832)            0         
_________________________________________________________________
dense_48 (Dense)             (None, 32)                5914656   
_________________________________________________________________
activation_99 (Activation)   (None, 32)                0         
_________________________________________________________________
dropout_23 (Dropout)         (None, 32)                0         
_________________________________________________________________
dense_49 (Dense)             (None, 32)                1056      
_________________________________________________________________
activation_100 (Activation)  (None, 32)                0         
_________________________________________________________________
dropout_24 (Dropout)         (None, 32)                0         
_________________________________________________________________
dense_50 (Dense)             (None, 10)                330       
_________________________________________________________________
activation_101 (Activation)  (None, 10)                0         
=================================================================
Total params: 6,064,906
Trainable params: 6,064,906
Non-trainable params: 0
_________________________________________________________________
Epoch 1/20
20/20 [==============================] - 34s 2s/step - loss: 3.7609 - accuracy: 0.1061 - val_loss: 2.3029 - val_accuracy: 0.0875
Epoch 2/20
20/20 [==============================] - 32s 2s/step - loss: 2.3025 - accuracy: 0.1153 - val_loss: 2.3033 - val_accuracy: 0.1063
…
20/20 [==============================] - 32s 2s/step - loss: 2.3012 - accuracy: 0.0877 - val_loss: 2.3066 - val_accuracy: 0.0875
Epoch 19/20
20/20 [==============================] - 32s 2s/step - loss: 2.3023 - accuracy: 0.1063 - val_loss: 2.3067 - val_accuracy: 0.0875
Epoch 20/20
20/20 [==============================] - 31s 2s/step - loss: 2.3024 - accuracy: 0.1156 - val_loss: 2.3069 - val_accuracy: 0.0875
FingerPrints-3-128-nodes-2-dense-1608491686
Model: "sequential_26"
_________________________________________________________________
Layer (type)                 Output Shape              Param #   
=================================================================
conv2d_51 (Conv2D)           (None, 158, 158, 128)     1280      
_________________________________________________________________
activation_102 (Activation)  (None, 158, 158, 128)     0         
_________________________________________________________________
max_pooling2d_51 (MaxPooling (None, 79, 79, 128)       0         
_________________________________________________________________
conv2d_52 (Conv2D)           (None, 77, 77, 128)       147584    
_________________________________________________________________
activation_103 (Activation)  (None, 77, 77, 128)       0         
_________________________________________________________________
max_pooling2d_52 (MaxPooling (None, 38, 38, 128)       0         
_________________________________________________________________
conv2d_53 (Conv2D)           (None, 36, 36, 128)       147584    
_________________________________________________________________
activation_104 (Activation)  (None, 36, 36, 128)       0         
_________________________________________________________________
max_pooling2d_53 (MaxPooling (None, 18, 18, 128)       0         
_________________________________________________________________
flatten_26 (Flatten)         (None, 41472)             0         
_________________________________________________________________
dense_51 (Dense)             (None, 32)                1327136   
_________________________________________________________________
activation_105 (Activation)  (None, 32)                0         
_________________________________________________________________
dropout_25 (Dropout)         (None, 32)                0         
_________________________________________________________________
dense_52 (Dense)             (None, 32)                1056      
_________________________________________________________________
activation_106 (Activation)  (None, 32)                0         
_________________________________________________________________
dropout_26 (Dropout)         (None, 32)                0         
_________________________________________________________________
dense_53 (Dense)             (None, 10)                330       
_________________________________________________________________
activation_107 (Activation)  (None, 10)                0         
=================================================================
Total params: 1,624,970
Trainable params: 1,624,970
Non-trainable params: 0
_________________________________________________________________
Epoch 1/20
20/20 [==============================] - 44s 2s/step - loss: 2.4547 - accuracy: 0.0937 - val_loss: 2.3027 - val_accuracy: 0.0875
Epoch 2/20
20/20 [==============================] - 41s 2s/step - loss: 2.3032 - accuracy: 0.0922 - val_loss: 2.3029 - val_accuracy: 0.0875
…
