FingerPrints-1-32-nodes-0-dense-1608493148
Model: "sequential"
_________________________________________________________________
Layer (type)                 Output Shape              Param #   
=================================================================
conv2d (Conv2D)              (None, 58, 58, 32)        320       
_________________________________________________________________
activation (Activation)      (None, 58, 58, 32)        0         
_________________________________________________________________
max_pooling2d (MaxPooling2D) (None, 29, 29, 32)        0         
_________________________________________________________________
flatten (Flatten)            (None, 26912)             0         
_________________________________________________________________
dense (Dense)                (None, 10)                269130    
_________________________________________________________________
activation_1 (Activation)    (None, 10)                0         
=================================================================
Total params: 269,450
Trainable params: 269,450
Non-trainable params: 0
_________________________________________________________________
Epoch 1/100
20/20 [==============================] - 2s 63ms/step - loss: 3.5806 - accuracy: 0.0796 - val_loss: 2.3969 - val_accuracy: 0.1000
Epoch 2/100
20/20 [==============================] - 1s 37ms/step - loss: 2.2510 - accuracy: 0.1710 - val_loss: 2.3496 - val_accuracy: 0.1500
…
20/20 [==============================] - 1s 36ms/step - loss: 0.0021 - accuracy: 1.0000 - val_loss: 1.5914 - val_accuracy: 0.5625
Epoch 100/100
20/20 [==============================] - 1s 36ms/step - loss: 0.0020 - accuracy: 1.0000 - val_loss: 1.5928 - val_accuracy: 0.5375
INFO:tensorflow:Assets written to: models_60x60/FingerPrints-1-32-nodes-0-dense-1608493148.model\assets
FingerPrints-2-32-nodes-0-dense-1608493224
Model: "sequential_1"
_________________________________________________________________
Layer (type)                 Output Shape              Param #   
=================================================================
conv2d_1 (Conv2D)            (None, 58, 58, 32)        320       
_________________________________________________________________
activation_2 (Activation)    (None, 58, 58, 32)        0         
_________________________________________________________________
max_pooling2d_1 (MaxPooling2 (None, 29, 29, 32)        0         
_________________________________________________________________
conv2d_2 (Conv2D)            (None, 27, 27, 32)        9248      
_________________________________________________________________
activation_3 (Activation)    (None, 27, 27, 32)        0         
_________________________________________________________________
max_pooling2d_2 (MaxPooling2 (None, 13, 13, 32)        0         
_________________________________________________________________
flatten_1 (Flatten)          (None, 5408)              0         
_________________________________________________________________
dense_1 (Dense)              (None, 10)                54090     
_________________________________________________________________
activation_4 (Activation)    (None, 10)                0         
=================================================================
Total params: 63,658
Trainable params: 63,658
Non-trainable params: 0
_________________________________________________________________
Epoch 1/100
20/20 [==============================] - 2s 90ms/step - loss: 2.3447 - accuracy: 0.0849 - val_loss: 2.2993 - val_accuracy: 0.1625
Epoch 2/100
20/20 [==============================] - 1s 55ms/step - loss: 2.2933 - accuracy: 0.1317 - val_loss: 2.2947 - val_accuracy: 0.0938
…
20/20 [==============================] - 1s 59ms/step - loss: 0.0095 - accuracy: 1.0000 - val_loss: 0.9556 - val_accuracy: 0.7563
Epoch 100/100
20/20 [==============================] - 1s 59ms/step - loss: 0.0093 - accuracy: 1.0000 - val_loss: 1.0287 - val_accuracy: 0.7000
INFO:tensorflow:Assets written to: models_60x60/FingerPrints-2-32-nodes-0-dense-1608493224.model\assets
FingerPrints-3-32-nodes-0-dense-1608493345
Model: "sequential_2"
_________________________________________________________________
Layer (type)                 Output Shape              Param #   
=================================================================
conv2d_3 (Conv2D)            (None, 58, 58, 32)        320       
_________________________________________________________________
activation_5 (Activation)    (None, 58, 58, 32)        0         
_________________________________________________________________
max_pooling2d_3 (MaxPooling2 (None, 29, 29, 32)        0         
_________________________________________________________________
conv2d_4 (Conv2D)            (None, 27, 27, 32)        9248      
_________________________________________________________________
activation_6 (Activation)    (None, 27, 27, 32)        0         
_________________________________________________________________
max_pooling2d_4 (MaxPooling2 (None, 13, 13, 32)        0         
_________________________________________________________________
conv2d_5 (Conv2D)            (None, 11, 11, 32)        9248      
_________________________________________________________________
activation_7 (Activation)    (None, 11, 11, 32)        0         
_________________________________________________________________
max_pooling2d_5 (MaxPooling2 (None, 5, 5, 32)          0         
_________________________________________________________________
flatten_2 (Flatten)          (None, 800)               0         
_________________________________________________________________
dense_2 (Dense)              (None, 10)                8010      
_________________________________________________________________
activation_8 (Activation)    (None, 10)                0         
=================================================================
Total params: 26,826
Trainable params: 26,826
Non-trainable params: 0
_________________________________________________________________
Epoch 1/100
20/20 [==============================] - 2s 105ms/step - loss: 2.3145 - accuracy: 0.1042 - val_loss: 2.3010 - val_accuracy: 0.1125
Epoch 2/100
20/20 [==============================] - 1s 60ms/step - loss: 2.2987 - accuracy: 0.1440 - val_loss: 2.3006 - val_accuracy: 0.0875
…
20/20 [==============================] - 1s 62ms/step - loss: 0.1030 - accuracy: 0.9803 - val_loss: 0.7945 - val_accuracy: 0.7563
Epoch 100/100
20/20 [==============================] - 1s 62ms/step - loss: 0.0972 - accuracy: 0.9851 - val_loss: 0.7331 - val_accuracy: 0.7563
INFO:tensorflow:Assets written to: models_60x60/FingerPrints-3-32-nodes-0-dense-1608493345.model\assets
FingerPrints-1-64-nodes-0-dense-1608493473
Model: "sequential_3"
_________________________________________________________________
Layer (type)                 Output Shape              Param #   
=================================================================
conv2d_6 (Conv2D)            (None, 58, 58, 64)        640       
_________________________________________________________________
activation_9 (Activation)    (None, 58, 58, 64)        0         
_________________________________________________________________
max_pooling2d_6 (MaxPooling2 (None, 29, 29, 64)        0         
_________________________________________________________________
flatten_3 (Flatten)          (None, 53824)             0         
_________________________________________________________________
dense_3 (Dense)              (None, 10)                538250    
_________________________________________________________________
activation_10 (Activation)   (None, 10)                0         
=================================================================
Total params: 538,890
Trainable params: 538,890
Non-trainable params: 0
_________________________________________________________________
Epoch 1/100
20/20 [==============================] - 2s 99ms/step - loss: 3.4285 - accuracy: 0.0888 - val_loss: 2.4566 - val_accuracy: 0.0750
Epoch 2/100
20/20 [==============================] - 1s 58ms/step - loss: 2.1765 - accuracy: 0.2216 - val_loss: 2.1626 - val_accuracy: 0.2500
…
20/20 [==============================] - 1s 62ms/step - loss: 0.0010 - accuracy: 1.0000 - val_loss: 1.4368 - val_accuracy: 0.5875
Epoch 100/100
20/20 [==============================] - 1s 62ms/step - loss: 9.2308e-04 - accuracy: 1.0000 - val_loss: 1.4314 - val_accuracy: 0.5875
INFO:tensorflow:Assets written to: models_60x60/FingerPrints-1-64-nodes-0-dense-1608493473.model\assets
FingerPrints-2-64-nodes-0-dense-1608493599
Model: "sequential_4"
_________________________________________________________________
Layer (type)                 Output Shape              Param #   
=================================================================
conv2d_7 (Conv2D)            (None, 58, 58, 64)        640       
_________________________________________________________________
activation_11 (Activation)   (None, 58, 58, 64)        0         
_________________________________________________________________
max_pooling2d_7 (MaxPooling2 (None, 29, 29, 64)        0         
_________________________________________________________________
conv2d_8 (Conv2D)            (None, 27, 27, 64)        36928     
_________________________________________________________________
activation_12 (Activation)   (None, 27, 27, 64)        0         
_________________________________________________________________
max_pooling2d_8 (MaxPooling2 (None, 13, 13, 64)        0         
_________________________________________________________________
flatten_4 (Flatten)          (None, 10816)             0         
_________________________________________________________________
dense_4 (Dense)              (None, 10)                108170    
_________________________________________________________________
activation_13 (Activation)   (None, 10)                0         
=================================================================
Total params: 145,738
Trainable params: 145,738
Non-trainable params: 0
_________________________________________________________________
Epoch 1/100
20/20 [==============================] - 3s 138ms/step - loss: 2.3739 - accuracy: 0.0794 - val_loss: 2.3025 - val_accuracy: 0.1000
Epoch 2/100
20/20 [==============================] - 2s 104ms/step - loss: 2.3019 - accuracy: 0.1083 - val_loss: 2.2992 - val_accuracy: 0.1375
…
20/20 [==============================] - 2s 107ms/step - loss: 0.0068 - accuracy: 1.0000 - val_loss: 1.2442 - val_accuracy: 0.6750
Epoch 100/100
20/20 [==============================] - 2s 107ms/step - loss: 0.0064 - accuracy: 1.0000 - val_loss: 1.2682 - val_accuracy: 0.6812
INFO:tensorflow:Assets written to: models_60x60/FingerPrints-2-64-nodes-0-dense-1608493599.model\assets
FingerPrints-3-64-nodes-0-dense-1608493815
Model: "sequential_5"
_________________________________________________________________
Layer (type)                 Output Shape              Param #   
=================================================================
conv2d_9 (Conv2D)            (None, 58, 58, 64)        640       
_________________________________________________________________
activation_14 (Activation)   (None, 58, 58, 64)        0         
_________________________________________________________________
max_pooling2d_9 (MaxPooling2 (None, 29, 29, 64)        0         
_________________________________________________________________
conv2d_10 (Conv2D)           (None, 27, 27, 64)        36928     
_________________________________________________________________
activation_15 (Activation)   (None, 27, 27, 64)        0         
_________________________________________________________________
max_pooling2d_10 (MaxPooling (None, 13, 13, 64)        0         
_________________________________________________________________
conv2d_11 (Conv2D)           (None, 11, 11, 64)        36928     
_________________________________________________________________
activation_16 (Activation)   (None, 11, 11, 64)        0         
_________________________________________________________________
max_pooling2d_11 (MaxPooling (None, 5, 5, 64)          0         
_________________________________________________________________
flatten_5 (Flatten)          (None, 1600)              0         
_________________________________________________________________
dense_5 (Dense)              (None, 10)                16010     
_________________________________________________________________
activation_17 (Activation)   (None, 10)                0         
=================================================================
Total params: 90,506
Trainable params: 90,506
Non-trainable params: 0
_________________________________________________________________
Epoch 1/100
20/20 [==============================] - 3s 150ms/step - loss: 2.3241 - accuracy: 0.1062 - val_loss: 2.3039 - val_accuracy: 0.0750
Epoch 2/100
20/20 [==============================] - 2s 111ms/step - loss: 2.2997 - accuracy: 0.1281 - val_loss: 2.2999 - val_accuracy: 0.1125
…
20/20 [==============================] - 2s 113ms/step - loss: 0.0248 - accuracy: 0.9996 - val_loss: 0.7456 - val_accuracy: 0.7875
Epoch 100/100
20/20 [==============================] - 2s 112ms/step - loss: 0.0257 - accuracy: 0.9989 - val_loss: 0.7606 - val_accuracy: 0.7812
INFO:tensorflow:Assets written to: models_60x60/FingerPrints-3-64-nodes-0-dense-1608493815.model\assets
FingerPrints-1-128-nodes-0-dense-1608494045
Model: "sequential_6"
_________________________________________________________________
Layer (type)                 Output Shape              Param #   
=================================================================
conv2d_12 (Conv2D)           (None, 58, 58, 128)       1280      
_________________________________________________________________
activation_18 (Activation)   (None, 58, 58, 128)       0         
_________________________________________________________________
max_pooling2d_12 (MaxPooling (None, 29, 29, 128)       0         
_________________________________________________________________
flatten_6 (Flatten)          (None, 107648)            0         
_________________________________________________________________
dense_6 (Dense)              (None, 10)                1076490   
_________________________________________________________________
activation_19 (Activation)   (None, 10)                0         
=================================================================
Total params: 1,077,770
Trainable params: 1,077,770
Non-trainable params: 0
_________________________________________________________________
Epoch 1/100
20/20 [==============================] - 3s 138ms/step - loss: 4.0453 - accuracy: 0.0779 - val_loss: 2.4163 - val_accuracy: 0.1125
Epoch 2/100
20/20 [==============================] - 2s 103ms/step - loss: 2.1579 - accuracy: 0.2216 - val_loss: 2.1884 - val_accuracy: 0.1312
…
20/20 [==============================] - 2s 111ms/step - loss: 6.1888e-04 - accuracy: 1.0000 - val_loss: 1.3805 - val_accuracy: 0.5750
Epoch 100/100
20/20 [==============================] - 2s 110ms/step - loss: 5.8304e-04 - accuracy: 1.0000 - val_loss: 1.3865 - val_accuracy: 0.5938
INFO:tensorflow:Assets written to: models_60x60/FingerPrints-1-128-nodes-0-dense-1608494045.model\assets
FingerPrints-2-128-nodes-0-dense-1608494267
Model: "sequential_7"
_________________________________________________________________
Layer (type)                 Output Shape              Param #   
=================================================================
conv2d_13 (Conv2D)           (None, 58, 58, 128)       1280      
_________________________________________________________________
activation_20 (Activation)   (None, 58, 58, 128)       0         
_________________________________________________________________
max_pooling2d_13 (MaxPooling (None, 29, 29, 128)       0         
_________________________________________________________________
conv2d_14 (Conv2D)           (None, 27, 27, 128)       147584    
_________________________________________________________________
activation_21 (Activation)   (None, 27, 27, 128)       0         
_________________________________________________________________
max_pooling2d_14 (MaxPooling (None, 13, 13, 128)       0         
_________________________________________________________________
flatten_7 (Flatten)          (None, 21632)             0         
_________________________________________________________________
dense_7 (Dense)              (None, 10)                216330    
_________________________________________________________________
activation_22 (Activation)   (None, 10)                0         
=================================================================
Total params: 365,194
Trainable params: 365,194
Non-trainable params: 0
_________________________________________________________________
Epoch 1/100
20/20 [==============================] - 6s 268ms/step - loss: 2.3759 - accuracy: 0.0907 - val_loss: 2.3031 - val_accuracy: 0.0938
Epoch 2/100
20/20 [==============================] - 5s 227ms/step - loss: 2.2995 - accuracy: 0.1072 - val_loss: 2.2924 - val_accuracy: 0.0938
…
20/20 [==============================] - 5s 231ms/step - loss: 0.0211 - accuracy: 1.0000 - val_loss: 1.5491 - val_accuracy: 0.5500
Epoch 100/100
20/20 [==============================] - 5s 232ms/step - loss: 0.0218 - accuracy: 1.0000 - val_loss: 1.5636 - val_accuracy: 0.5375
INFO:tensorflow:Assets written to: models_60x60/FingerPrints-2-128-nodes-0-dense-1608494267.model\assets
FingerPrints-3-128-nodes-0-dense-1608494735
Model: "sequential_8"
_________________________________________________________________
Layer (type)                 Output Shape              Param #   
=================================================================
conv2d_15 (Conv2D)           (None, 58, 58, 128)       1280      
_________________________________________________________________
activation_23 (Activation)   (None, 58, 58, 128)       0         
_________________________________________________________________
max_pooling2d_15 (MaxPooling (None, 29, 29, 128)       0         
_________________________________________________________________
conv2d_16 (Conv2D)           (None, 27, 27, 128)       147584    
_________________________________________________________________
activation_24 (Activation)   (None, 27, 27, 128)       0         
_________________________________________________________________
max_pooling2d_16 (MaxPooling (None, 13, 13, 128)       0         
_________________________________________________________________
conv2d_17 (Conv2D)           (None, 11, 11, 128)       147584    
_________________________________________________________________
activation_25 (Activation)   (None, 11, 11, 128)       0         
_________________________________________________________________
max_pooling2d_17 (MaxPooling (None, 5, 5, 128)         0         
_________________________________________________________________
flatten_8 (Flatten)          (None, 3200)              0         
_________________________________________________________________
dense_8 (Dense)              (None, 10)                32010     
_________________________________________________________________
activation_26 (Activation)   (None, 10)                0         
=================================================================
Total params: 328,458
Trainable params: 328,458
Non-trainable params: 0
_________________________________________________________________
Epoch 1/100
20/20 [==============================] - 6s 294ms/step - loss: 2.3297 - accuracy: 0.1143 - val_loss: 2.3109 - val_accuracy: 0.0875
Epoch 2/100
20/20 [==============================] - 5s 250ms/step - loss: 2.3065 - accuracy: 0.1060 - val_loss: 2.3030 - val_accuracy: 0.0938
…
20/20 [==============================] - 5s 252ms/step - loss: 0.0020 - accuracy: 1.0000 - val_loss: 1.0707 - val_accuracy: 0.7875
Epoch 100/100
20/20 [==============================] - 5s 252ms/step - loss: 0.0021 - accuracy: 1.0000 - val_loss: 1.0699 - val_accuracy: 0.7812
INFO:tensorflow:Assets written to: models_60x60/FingerPrints-3-128-nodes-0-dense-1608494735.model\assets
FingerPrints-1-32-nodes-1-dense-1608495245
Model: "sequential_9"
_________________________________________________________________
Layer (type)                 Output Shape              Param #   
=================================================================
conv2d_18 (Conv2D)           (None, 58, 58, 32)        320       
_________________________________________________________________
activation_27 (Activation)   (None, 58, 58, 32)        0         
_________________________________________________________________
max_pooling2d_18 (MaxPooling (None, 29, 29, 32)        0         
_________________________________________________________________
flatten_9 (Flatten)          (None, 26912)             0         
_________________________________________________________________
dense_9 (Dense)              (None, 32)                861216    
_________________________________________________________________
activation_28 (Activation)   (None, 32)                0         
_________________________________________________________________
dropout (Dropout)            (None, 32)                0         
_________________________________________________________________
dense_10 (Dense)             (None, 10)                330       
_________________________________________________________________
activation_29 (Activation)   (None, 10)                0         
=================================================================
Total params: 861,866
Trainable params: 861,866
Non-trainable params: 0
_________________________________________________________________
Epoch 1/100
20/20 [==============================] - 2s 72ms/step - loss: 2.7371 - accuracy: 0.1148 - val_loss: 2.3028 - val_accuracy: 0.0875
Epoch 2/100
20/20 [==============================] - 1s 34ms/step - loss: 2.3023 - accuracy: 0.0912 - val_loss: 2.3036 - val_accuracy: 0.1125
…
20/20 [==============================] - 1s 35ms/step - loss: 1.9168 - accuracy: 0.2601 - val_loss: 2.4174 - val_accuracy: 0.2375
Epoch 100/100
20/20 [==============================] - 1s 35ms/step - loss: 1.8709 - accuracy: 0.3013 - val_loss: 2.1361 - val_accuracy: 0.2375
INFO:tensorflow:Assets written to: models_60x60/FingerPrints-1-32-nodes-1-dense-1608495245.model\assets
FingerPrints-2-32-nodes-1-dense-1608495320
Model: "sequential_10"
_________________________________________________________________
Layer (type)                 Output Shape              Param #   
=================================================================
conv2d_19 (Conv2D)           (None, 58, 58, 32)        320       
_________________________________________________________________
activation_30 (Activation)   (None, 58, 58, 32)        0         
_________________________________________________________________
max_pooling2d_19 (MaxPooling (None, 29, 29, 32)        0         
_________________________________________________________________
conv2d_20 (Conv2D)           (None, 27, 27, 32)        9248      
_________________________________________________________________
activation_31 (Activation)   (None, 27, 27, 32)        0         
_________________________________________________________________
max_pooling2d_20 (MaxPooling (None, 13, 13, 32)        0         
_________________________________________________________________
flatten_10 (Flatten)         (None, 5408)              0         
_________________________________________________________________
dense_11 (Dense)             (None, 32)                173088    
_________________________________________________________________
activation_32 (Activation)   (None, 32)                0         
_________________________________________________________________
dropout_1 (Dropout)          (None, 32)                0         
_________________________________________________________________
dense_12 (Dense)             (None, 10)                330       
_________________________________________________________________
activation_33 (Activation)   (None, 10)                0         
=================================================================
Total params: 182,986
Trainable params: 182,986
Non-trainable params: 0
_________________________________________________________________
Epoch 1/100
20/20 [==============================] - 2s 100ms/step - loss: 2.3204 - accuracy: 0.1122 - val_loss: 2.3030 - val_accuracy: 0.0875
Epoch 2/100
20/20 [==============================] - 1s 57ms/step - loss: 2.3008 - accuracy: 0.0896 - val_loss: 2.3047 - val_accuracy: 0.0688
…
20/20 [==============================] - 1s 59ms/step - loss: 0.1796 - accuracy: 0.9277 - val_loss: 0.9875 - val_accuracy: 0.7188
Epoch 100/100
20/20 [==============================] - 1s 58ms/step - loss: 0.1844 - accuracy: 0.9330 - val_loss: 1.1611 - val_accuracy: 0.6562
INFO:tensorflow:Assets written to: models_60x60/FingerPrints-2-32-nodes-1-dense-1608495320.model\assets
FingerPrints-3-32-nodes-1-dense-1608495440
Model: "sequential_11"
_________________________________________________________________
Layer (type)                 Output Shape              Param #   
=================================================================
conv2d_21 (Conv2D)           (None, 58, 58, 32)        320       
_________________________________________________________________
activation_34 (Activation)   (None, 58, 58, 32)        0         
_________________________________________________________________
max_pooling2d_21 (MaxPooling (None, 29, 29, 32)        0         
_________________________________________________________________
conv2d_22 (Conv2D)           (None, 27, 27, 32)        9248      
_________________________________________________________________
activation_35 (Activation)   (None, 27, 27, 32)        0         
_________________________________________________________________
max_pooling2d_22 (MaxPooling (None, 13, 13, 32)        0         
_________________________________________________________________
conv2d_23 (Conv2D)           (None, 11, 11, 32)        9248      
_________________________________________________________________
activation_36 (Activation)   (None, 11, 11, 32)        0         
_________________________________________________________________
max_pooling2d_23 (MaxPooling (None, 5, 5, 32)          0         
_________________________________________________________________
flatten_11 (Flatten)         (None, 800)               0         
_________________________________________________________________
dense_13 (Dense)             (None, 32)                25632     
_________________________________________________________________
activation_37 (Activation)   (None, 32)                0         
_________________________________________________________________
dropout_2 (Dropout)          (None, 32)                0         
_________________________________________________________________
dense_14 (Dense)             (None, 10)                330       
_________________________________________________________________
activation_38 (Activation)   (None, 10)                0         
=================================================================
Total params: 44,778
Trainable params: 44,778
Non-trainable params: 0
_________________________________________________________________
Epoch 1/100
20/20 [==============================] - 3s 110ms/step - loss: 2.3147 - accuracy: 0.0927 - val_loss: 2.3019 - val_accuracy: 0.1063
Epoch 2/100
20/20 [==============================] - 1s 60ms/step - loss: 2.3009 - accuracy: 0.1064 - val_loss: 2.3003 - val_accuracy: 0.1000
…
20/20 [==============================] - 1s 62ms/step - loss: 0.3629 - accuracy: 0.8691 - val_loss: 0.5933 - val_accuracy: 0.7688
Epoch 100/100
20/20 [==============================] - 1s 62ms/step - loss: 0.3272 - accuracy: 0.8874 - val_loss: 0.6867 - val_accuracy: 0.7563
INFO:tensorflow:Assets written to: models_60x60/FingerPrints-3-32-nodes-1-dense-1608495440.model\assets
FingerPrints-1-64-nodes-1-dense-1608495568
Model: "sequential_12"
_________________________________________________________________
Layer (type)                 Output Shape              Param #   
=================================================================
conv2d_24 (Conv2D)           (None, 58, 58, 64)        640       
_________________________________________________________________
activation_39 (Activation)   (None, 58, 58, 64)        0         
_________________________________________________________________
max_pooling2d_24 (MaxPooling (None, 29, 29, 64)        0         
_________________________________________________________________
flatten_12 (Flatten)         (None, 53824)             0         
_________________________________________________________________
dense_15 (Dense)             (None, 32)                1722400   
_________________________________________________________________
activation_40 (Activation)   (None, 32)                0         
_________________________________________________________________
dropout_3 (Dropout)          (None, 32)                0         
_________________________________________________________________
dense_16 (Dense)             (None, 10)                330       
_________________________________________________________________
activation_41 (Activation)   (None, 10)                0         
=================================================================
Total params: 1,723,370
Trainable params: 1,723,370
Non-trainable params: 0
_________________________________________________________________
Epoch 1/100
20/20 [==============================] - 2s 97ms/step - loss: 2.8675 - accuracy: 0.1224 - val_loss: 2.3028 - val_accuracy: 0.1063
Epoch 2/100
20/20 [==============================] - 1s 60ms/step - loss: 2.3026 - accuracy: 0.0959 - val_loss: 2.3031 - val_accuracy: 0.0875
…
20/20 [==============================] - 1s 61ms/step - loss: 2.3005 - accuracy: 0.1117 - val_loss: 2.3082 - val_accuracy: 0.0750
Epoch 100/100
20/20 [==============================] - 1s 63ms/step - loss: 2.3036 - accuracy: 0.1004 - val_loss: 2.3081 - val_accuracy: 0.0750
INFO:tensorflow:Assets written to: models_60x60/FingerPrints-1-64-nodes-1-dense-1608495568.model\assets
FingerPrints-2-64-nodes-1-dense-1608495693
Model: "sequential_13"
_________________________________________________________________
Layer (type)                 Output Shape              Param #   
=================================================================
conv2d_25 (Conv2D)           (None, 58, 58, 64)        640       
_________________________________________________________________
activation_42 (Activation)   (None, 58, 58, 64)        0         
_________________________________________________________________
max_pooling2d_25 (MaxPooling (None, 29, 29, 64)        0         
_________________________________________________________________
conv2d_26 (Conv2D)           (None, 27, 27, 64)        36928     
_________________________________________________________________
activation_43 (Activation)   (None, 27, 27, 64)        0         
_________________________________________________________________
max_pooling2d_26 (MaxPooling (None, 13, 13, 64)        0         
_________________________________________________________________
flatten_13 (Flatten)         (None, 10816)             0         
_________________________________________________________________
dense_17 (Dense)             (None, 32)                346144    
_________________________________________________________________
activation_44 (Activation)   (None, 32)                0         
_________________________________________________________________
dropout_4 (Dropout)          (None, 32)                0         
_________________________________________________________________
dense_18 (Dense)             (None, 10)                330       
_________________________________________________________________
activation_45 (Activation)   (None, 10)                0         
=================================================================
Total params: 384,042
Trainable params: 384,042
Non-trainable params: 0
_________________________________________________________________
Epoch 1/100
20/20 [==============================] - 3s 141ms/step - loss: 2.3352 - accuracy: 0.0929 - val_loss: 2.3024 - val_accuracy: 0.1312
Epoch 2/100
20/20 [==============================] - 2s 104ms/step - loss: 2.3008 - accuracy: 0.1665 - val_loss: 2.3074 - val_accuracy: 0.0750
…
20/20 [==============================] - 2s 109ms/step - loss: 0.3491 - accuracy: 0.8625 - val_loss: 1.1829 - val_accuracy: 0.5938
Epoch 100/100
20/20 [==============================] - 2s 107ms/step - loss: 0.2991 - accuracy: 0.9055 - val_loss: 1.6914 - val_accuracy: 0.5813
INFO:tensorflow:Assets written to: models_60x60/FingerPrints-2-64-nodes-1-dense-1608495693.model\assets
FingerPrints-3-64-nodes-1-dense-1608495909
Model: "sequential_14"
_________________________________________________________________
Layer (type)                 Output Shape              Param #   
=================================================================
conv2d_27 (Conv2D)           (None, 58, 58, 64)        640       
_________________________________________________________________
activation_46 (Activation)   (None, 58, 58, 64)        0         
_________________________________________________________________
max_pooling2d_27 (MaxPooling (None, 29, 29, 64)        0         
_________________________________________________________________
conv2d_28 (Conv2D)           (None, 27, 27, 64)        36928     
_________________________________________________________________
activation_47 (Activation)   (None, 27, 27, 64)        0         
_________________________________________________________________
max_pooling2d_28 (MaxPooling (None, 13, 13, 64)        0         
_________________________________________________________________
conv2d_29 (Conv2D)           (None, 11, 11, 64)        36928     
_________________________________________________________________
activation_48 (Activation)   (None, 11, 11, 64)        0         
_________________________________________________________________
max_pooling2d_29 (MaxPooling (None, 5, 5, 64)          0         
_________________________________________________________________
flatten_14 (Flatten)         (None, 1600)              0         
_________________________________________________________________
dense_19 (Dense)             (None, 32)                51232     
_________________________________________________________________
activation_49 (Activation)   (None, 32)                0         
_________________________________________________________________
dropout_5 (Dropout)          (None, 32)                0         
_________________________________________________________________
dense_20 (Dense)             (None, 10)                330       
_________________________________________________________________
activation_50 (Activation)   (None, 10)                0         
=================================================================
Total params: 126,058
Trainable params: 126,058
Non-trainable params: 0
_________________________________________________________________
Epoch 1/100
20/20 [==============================] - 4s 159ms/step - loss: 2.3104 - accuracy: 0.0853 - val_loss: 2.3037 - val_accuracy: 0.0875
Epoch 2/100
20/20 [==============================] - 2s 111ms/step - loss: 2.3049 - accuracy: 0.0864 - val_loss: 2.3038 - val_accuracy: 0.1000
…
20/20 [==============================] - 2s 112ms/step - loss: 0.2465 - accuracy: 0.9111 - val_loss: 0.5569 - val_accuracy: 0.8438
Epoch 100/100
20/20 [==============================] - 2s 112ms/step - loss: 0.2195 - accuracy: 0.9067 - val_loss: 0.6550 - val_accuracy: 0.8000
INFO:tensorflow:Assets written to: models_60x60/FingerPrints-3-64-nodes-1-dense-1608495909.model\assets
FingerPrints-1-128-nodes-1-dense-1608496138
Model: "sequential_15"
_________________________________________________________________
Layer (type)                 Output Shape              Param #   
=================================================================
conv2d_30 (Conv2D)           (None, 58, 58, 128)       1280      
_________________________________________________________________
activation_51 (Activation)   (None, 58, 58, 128)       0         
_________________________________________________________________
max_pooling2d_30 (MaxPooling (None, 29, 29, 128)       0         
_________________________________________________________________
flatten_15 (Flatten)         (None, 107648)            0         
_________________________________________________________________
dense_21 (Dense)             (None, 32)                3444768   
_________________________________________________________________
activation_52 (Activation)   (None, 32)                0         
_________________________________________________________________
dropout_6 (Dropout)          (None, 32)                0         
_________________________________________________________________
dense_22 (Dense)             (None, 10)                330       
_________________________________________________________________
activation_53 (Activation)   (None, 10)                0         
=================================================================
Total params: 3,446,378
Trainable params: 3,446,378
Non-trainable params: 0
_________________________________________________________________
Epoch 1/100
20/20 [==============================] - 3s 148ms/step - loss: 3.3256 - accuracy: 0.0909 - val_loss: 2.3029 - val_accuracy: 0.0875
Epoch 2/100
20/20 [==============================] - 2s 110ms/step - loss: 2.3021 - accuracy: 0.0908 - val_loss: 2.3031 - val_accuracy: 0.0875
…
20/20 [==============================] - 2s 114ms/step - loss: 2.3034 - accuracy: 0.1020 - val_loss: 2.3081 - val_accuracy: 0.0750
Epoch 100/100
20/20 [==============================] - 2s 112ms/step - loss: 2.3015 - accuracy: 0.1210 - val_loss: 2.3082 - val_accuracy: 0.0750
INFO:tensorflow:Assets written to: models_60x60/FingerPrints-1-128-nodes-1-dense-1608496138.model\assets
FingerPrints-2-128-nodes-1-dense-1608496365
Model: "sequential_16"
_________________________________________________________________
Layer (type)                 Output Shape              Param #   
=================================================================
conv2d_31 (Conv2D)           (None, 58, 58, 128)       1280      
_________________________________________________________________
activation_54 (Activation)   (None, 58, 58, 128)       0         
_________________________________________________________________
max_pooling2d_31 (MaxPooling (None, 29, 29, 128)       0         
_________________________________________________________________
conv2d_32 (Conv2D)           (None, 27, 27, 128)       147584    
_________________________________________________________________
activation_55 (Activation)   (None, 27, 27, 128)       0         
_________________________________________________________________
max_pooling2d_32 (MaxPooling (None, 13, 13, 128)       0         
_________________________________________________________________
flatten_16 (Flatten)         (None, 21632)             0         
_________________________________________________________________
dense_23 (Dense)             (None, 32)                692256    
_________________________________________________________________
activation_56 (Activation)   (None, 32)                0         
_________________________________________________________________
dropout_7 (Dropout)          (None, 32)                0         
_________________________________________________________________
dense_24 (Dense)             (None, 10)                330       
_________________________________________________________________
activation_57 (Activation)   (None, 10)                0         
=================================================================
Total params: 841,450
Trainable params: 841,450
Non-trainable params: 0
_________________________________________________________________
Epoch 1/100
20/20 [==============================] - 6s 270ms/step - loss: 2.3349 - accuracy: 0.1279 - val_loss: 2.2992 - val_accuracy: 0.1250
Epoch 2/100
20/20 [==============================] - 5s 228ms/step - loss: 2.3029 - accuracy: 0.1290 - val_loss: 2.3025 - val_accuracy: 0.0875
…
20/20 [==============================] - 5s 226ms/step - loss: 2.3033 - accuracy: 0.1001 - val_loss: 2.3081 - val_accuracy: 0.0750
Epoch 100/100
20/20 [==============================] - 5s 230ms/step - loss: 2.2991 - accuracy: 0.1253 - val_loss: 2.3083 - val_accuracy: 0.0750
INFO:tensorflow:Assets written to: models_60x60/FingerPrints-2-128-nodes-1-dense-1608496365.model\assets
FingerPrints-3-128-nodes-1-dense-1608496822
Model: "sequential_17"
_________________________________________________________________
Layer (type)                 Output Shape              Param #   
=================================================================
conv2d_33 (Conv2D)           (None, 58, 58, 128)       1280      
_________________________________________________________________
activation_58 (Activation)   (None, 58, 58, 128)       0         
_________________________________________________________________
max_pooling2d_33 (MaxPooling (None, 29, 29, 128)       0         
_________________________________________________________________
conv2d_34 (Conv2D)           (None, 27, 27, 128)       147584    
_________________________________________________________________
activation_59 (Activation)   (None, 27, 27, 128)       0         
_________________________________________________________________
max_pooling2d_34 (MaxPooling (None, 13, 13, 128)       0         
_________________________________________________________________
conv2d_35 (Conv2D)           (None, 11, 11, 128)       147584    
_________________________________________________________________
activation_60 (Activation)   (None, 11, 11, 128)       0         
_________________________________________________________________
max_pooling2d_35 (MaxPooling (None, 5, 5, 128)         0         
_________________________________________________________________
flatten_17 (Flatten)         (None, 3200)              0         
_________________________________________________________________
dense_25 (Dense)             (None, 32)                102432    
_________________________________________________________________
activation_61 (Activation)   (None, 32)                0         
_________________________________________________________________
dropout_8 (Dropout)          (None, 32)                0         
_________________________________________________________________
dense_26 (Dense)             (None, 10)                330       
_________________________________________________________________
activation_62 (Activation)   (None, 10)                0         
=================================================================
Total params: 399,210
Trainable params: 399,210
Non-trainable params: 0
_________________________________________________________________
Epoch 1/100
20/20 [==============================] - 6s 298ms/step - loss: 2.3217 - accuracy: 0.0943 - val_loss: 2.3040 - val_accuracy: 0.0688
Epoch 2/100
20/20 [==============================] - 5s 250ms/step - loss: 2.3034 - accuracy: 0.0751 - val_loss: 2.3027 - val_accuracy: 0.0938
…
20/20 [==============================] - 5s 247ms/step - loss: 0.5444 - accuracy: 0.8138 - val_loss: 1.3037 - val_accuracy: 0.6313
Epoch 100/100
20/20 [==============================] - 5s 247ms/step - loss: 0.4990 - accuracy: 0.7895 - val_loss: 0.9272 - val_accuracy: 0.6750
INFO:tensorflow:Assets written to: models_60x60/FingerPrints-3-128-nodes-1-dense-1608496822.model\assets
FingerPrints-1-32-nodes-2-dense-1608497319
Model: "sequential_18"
_________________________________________________________________
Layer (type)                 Output Shape              Param #   
=================================================================
conv2d_36 (Conv2D)           (None, 58, 58, 32)        320       
_________________________________________________________________
activation_63 (Activation)   (None, 58, 58, 32)        0         
_________________________________________________________________
max_pooling2d_36 (MaxPooling (None, 29, 29, 32)        0         
_________________________________________________________________
flatten_18 (Flatten)         (None, 26912)             0         
_________________________________________________________________
dense_27 (Dense)             (None, 32)                861216    
_________________________________________________________________
activation_64 (Activation)   (None, 32)                0         
_________________________________________________________________
dropout_9 (Dropout)          (None, 32)                0         
_________________________________________________________________
dense_28 (Dense)             (None, 32)                1056      
_________________________________________________________________
activation_65 (Activation)   (None, 32)                0         
_________________________________________________________________
dropout_10 (Dropout)         (None, 32)                0         
_________________________________________________________________
dense_29 (Dense)             (None, 10)                330       
_________________________________________________________________
activation_66 (Activation)   (None, 10)                0         
=================================================================
Total params: 862,922
Trainable params: 862,922
Non-trainable params: 0
_________________________________________________________________
Epoch 1/100
20/20 [==============================] - 2s 83ms/step - loss: 2.5486 - accuracy: 0.0781 - val_loss: 2.3042 - val_accuracy: 0.1000
Epoch 2/100
20/20 [==============================] - 1s 34ms/step - loss: 2.3005 - accuracy: 0.1089 - val_loss: 2.3026 - val_accuracy: 0.0938
…
20/20 [==============================] - 1s 35ms/step - loss: 2.3005 - accuracy: 0.1177 - val_loss: 2.3082 - val_accuracy: 0.0750
Epoch 100/100
20/20 [==============================] - 1s 35ms/step - loss: 2.3033 - accuracy: 0.1058 - val_loss: 2.3080 - val_accuracy: 0.0750
INFO:tensorflow:Assets written to: models_60x60/FingerPrints-1-32-nodes-2-dense-1608497319.model\assets
FingerPrints-2-32-nodes-2-dense-1608497392
Model: "sequential_19"
_________________________________________________________________
Layer (type)                 Output Shape              Param #   
=================================================================
conv2d_37 (Conv2D)           (None, 58, 58, 32)        320       
_________________________________________________________________
activation_67 (Activation)   (None, 58, 58, 32)        0         
_________________________________________________________________
max_pooling2d_37 (MaxPooling (None, 29, 29, 32)        0         
_________________________________________________________________
conv2d_38 (Conv2D)           (None, 27, 27, 32)        9248      
_________________________________________________________________
activation_68 (Activation)   (None, 27, 27, 32)        0         
_________________________________________________________________
max_pooling2d_38 (MaxPooling (None, 13, 13, 32)        0         
_________________________________________________________________
flatten_19 (Flatten)         (None, 5408)              0         
_________________________________________________________________
dense_30 (Dense)             (None, 32)                173088    
_________________________________________________________________
activation_69 (Activation)   (None, 32)                0         
_________________________________________________________________
dropout_11 (Dropout)         (None, 32)                0         
_________________________________________________________________
dense_31 (Dense)             (None, 32)                1056      
_________________________________________________________________
activation_70 (Activation)   (None, 32)                0         
_________________________________________________________________
dropout_12 (Dropout)         (None, 32)                0         
_________________________________________________________________
dense_32 (Dense)             (None, 10)                330       
_________________________________________________________________
activation_71 (Activation)   (None, 10)                0         
=================================================================
Total params: 184,042
Trainable params: 184,042
Non-trainable params: 0
_________________________________________________________________
Epoch 1/100
20/20 [==============================] - 3s 106ms/step - loss: 2.3218 - accuracy: 0.1042 - val_loss: 2.3017 - val_accuracy: 0.1000
Epoch 2/100
20/20 [==============================] - 1s 57ms/step - loss: 2.3019 - accuracy: 0.1217 - val_loss: 2.3046 - val_accuracy: 0.0938
…
20/20 [==============================] - 1s 59ms/step - loss: 0.2141 - accuracy: 0.9275 - val_loss: 1.3136 - val_accuracy: 0.6375
Epoch 100/100
20/20 [==============================] - 1s 59ms/step - loss: 0.3013 - accuracy: 0.9149 - val_loss: 1.3506 - val_accuracy: 0.6000
INFO:tensorflow:Assets written to: models_60x60/FingerPrints-2-32-nodes-2-dense-1608497392.model\assets
FingerPrints-3-32-nodes-2-dense-1608497513
Model: "sequential_20"
_________________________________________________________________
Layer (type)                 Output Shape              Param #   
=================================================================
conv2d_39 (Conv2D)           (None, 58, 58, 32)        320       
_________________________________________________________________
activation_72 (Activation)   (None, 58, 58, 32)        0         
_________________________________________________________________
max_pooling2d_39 (MaxPooling (None, 29, 29, 32)        0         
_________________________________________________________________
conv2d_40 (Conv2D)           (None, 27, 27, 32)        9248      
_________________________________________________________________
activation_73 (Activation)   (None, 27, 27, 32)        0         
_________________________________________________________________
max_pooling2d_40 (MaxPooling (None, 13, 13, 32)        0         
_________________________________________________________________
conv2d_41 (Conv2D)           (None, 11, 11, 32)        9248      
_________________________________________________________________
activation_74 (Activation)   (None, 11, 11, 32)        0         
_________________________________________________________________
max_pooling2d_41 (MaxPooling (None, 5, 5, 32)          0         
_________________________________________________________________
flatten_20 (Flatten)         (None, 800)               0         
_________________________________________________________________
dense_33 (Dense)             (None, 32)                25632     
_________________________________________________________________
activation_75 (Activation)   (None, 32)                0         
_________________________________________________________________
dropout_13 (Dropout)         (None, 32)                0         
_________________________________________________________________
dense_34 (Dense)             (None, 32)                1056      
_________________________________________________________________
activation_76 (Activation)   (None, 32)                0         
_________________________________________________________________
dropout_14 (Dropout)         (None, 32)                0         
_________________________________________________________________
dense_35 (Dense)             (None, 10)                330       
_________________________________________________________________
activation_77 (Activation)   (None, 10)                0         
=================================================================
Total params: 45,834
Trainable params: 45,834
Non-trainable params: 0
_________________________________________________________________
Epoch 1/100
20/20 [==============================] - 3s 113ms/step - loss: 2.3144 - accuracy: 0.0980 - val_loss: 2.3041 - val_accuracy: 0.1187
Epoch 2/100
20/20 [==============================] - 1s 60ms/step - loss: 2.3032 - accuracy: 0.0974 - val_loss: 2.3030 - val_accuracy: 0.0938
…
20/20 [==============================] - 1s 63ms/step - loss: 0.7356 - accuracy: 0.6925 - val_loss: 0.7546 - val_accuracy: 0.6938
Epoch 100/100
20/20 [==============================] - 1s 62ms/step - loss: 0.7640 - accuracy: 0.6952 - val_loss: 0.7345 - val_accuracy: 0.7188
INFO:tensorflow:Assets written to: models_60x60/FingerPrints-3-32-nodes-2-dense-1608497513.model\assets
FingerPrints-1-64-nodes-2-dense-1608497642
Model: "sequential_21"
_________________________________________________________________
Layer (type)                 Output Shape              Param #   
=================================================================
conv2d_42 (Conv2D)           (None, 58, 58, 64)        640       
_________________________________________________________________
activation_78 (Activation)   (None, 58, 58, 64)        0         
_________________________________________________________________
max_pooling2d_42 (MaxPooling (None, 29, 29, 64)        0         
_________________________________________________________________
flatten_21 (Flatten)         (None, 53824)             0         
_________________________________________________________________
dense_36 (Dense)             (None, 32)                1722400   
_________________________________________________________________
activation_79 (Activation)   (None, 32)                0         
_________________________________________________________________
dropout_15 (Dropout)         (None, 32)                0         
_________________________________________________________________
dense_37 (Dense)             (None, 32)                1056      
_________________________________________________________________
activation_80 (Activation)   (None, 32)                0         
_________________________________________________________________
dropout_16 (Dropout)         (None, 32)                0         
_________________________________________________________________
dense_38 (Dense)             (None, 10)                330       
_________________________________________________________________
activation_81 (Activation)   (None, 10)                0         
=================================================================
Total params: 1,724,426
Trainable params: 1,724,426
Non-trainable params: 0
_________________________________________________________________
Epoch 1/100
20/20 [==============================] - 3s 101ms/step - loss: 2.9160 - accuracy: 0.1265 - val_loss: 2.3243 - val_accuracy: 0.1063
Epoch 2/100
20/20 [==============================] - 1s 61ms/step - loss: 2.3098 - accuracy: 0.0906 - val_loss: 2.3035 - val_accuracy: 0.0875
…
20/20 [==============================] - 1s 63ms/step - loss: 2.3017 - accuracy: 0.1101 - val_loss: 2.3083 - val_accuracy: 0.0750
Epoch 100/100
20/20 [==============================] - 1s 62ms/step - loss: 2.3013 - accuracy: 0.1010 - val_loss: 2.3083 - val_accuracy: 0.0750
INFO:tensorflow:Assets written to: models_60x60/FingerPrints-1-64-nodes-2-dense-1608497642.model\assets
FingerPrints-2-64-nodes-2-dense-1608497770
Model: "sequential_22"
_________________________________________________________________
Layer (type)                 Output Shape              Param #   
=================================================================
conv2d_43 (Conv2D)           (None, 58, 58, 64)        640       
_________________________________________________________________
activation_82 (Activation)   (None, 58, 58, 64)        0         
_________________________________________________________________
max_pooling2d_43 (MaxPooling (None, 29, 29, 64)        0         
_________________________________________________________________
conv2d_44 (Conv2D)           (None, 27, 27, 64)        36928     
_________________________________________________________________
activation_83 (Activation)   (None, 27, 27, 64)        0         
_________________________________________________________________
max_pooling2d_44 (MaxPooling (None, 13, 13, 64)        0         
_________________________________________________________________
flatten_22 (Flatten)         (None, 10816)             0         
_________________________________________________________________
dense_39 (Dense)             (None, 32)                346144    
_________________________________________________________________
activation_84 (Activation)   (None, 32)                0         
_________________________________________________________________
dropout_17 (Dropout)         (None, 32)                0         
_________________________________________________________________
dense_40 (Dense)             (None, 32)                1056      
_________________________________________________________________
activation_85 (Activation)   (None, 32)                0         
_________________________________________________________________
dropout_18 (Dropout)         (None, 32)                0         
_________________________________________________________________
dense_41 (Dense)             (None, 10)                330       
_________________________________________________________________
activation_86 (Activation)   (None, 10)                0         
=================================================================
Total params: 385,098
Trainable params: 385,098
Non-trainable params: 0
_________________________________________________________________
Epoch 1/100
20/20 [==============================] - 3s 152ms/step - loss: 2.3202 - accuracy: 0.0802 - val_loss: 2.3013 - val_accuracy: 0.1312
Epoch 2/100
20/20 [==============================] - 2s 103ms/step - loss: 2.3019 - accuracy: 0.1119 - val_loss: 2.2988 - val_accuracy: 0.1375
…
20/20 [==============================] - 2s 107ms/step - loss: 0.4103 - accuracy: 0.8638 - val_loss: 1.2392 - val_accuracy: 0.6375
Epoch 100/100
20/20 [==============================] - 2s 107ms/step - loss: 0.3927 - accuracy: 0.8512 - val_loss: 1.1240 - val_accuracy: 0.6313
INFO:tensorflow:Assets written to: models_60x60/FingerPrints-2-64-nodes-2-dense-1608497770.model\assets
FingerPrints-3-64-nodes-2-dense-1608497988
Model: "sequential_23"
_________________________________________________________________
Layer (type)                 Output Shape              Param #   
=================================================================
conv2d_45 (Conv2D)           (None, 58, 58, 64)        640       
_________________________________________________________________
activation_87 (Activation)   (None, 58, 58, 64)        0         
_________________________________________________________________
max_pooling2d_45 (MaxPooling (None, 29, 29, 64)        0         
_________________________________________________________________
conv2d_46 (Conv2D)           (None, 27, 27, 64)        36928     
_________________________________________________________________
activation_88 (Activation)   (None, 27, 27, 64)        0         
_________________________________________________________________
max_pooling2d_46 (MaxPooling (None, 13, 13, 64)        0         
_________________________________________________________________
conv2d_47 (Conv2D)           (None, 11, 11, 64)        36928     
_________________________________________________________________
activation_89 (Activation)   (None, 11, 11, 64)        0         
_________________________________________________________________
max_pooling2d_47 (MaxPooling (None, 5, 5, 64)          0         
_________________________________________________________________
flatten_23 (Flatten)         (None, 1600)              0         
_________________________________________________________________
dense_42 (Dense)             (None, 32)                51232     
_________________________________________________________________
activation_90 (Activation)   (None, 32)                0         
_________________________________________________________________
dropout_19 (Dropout)         (None, 32)                0         
_________________________________________________________________
dense_43 (Dense)             (None, 32)                1056      
_________________________________________________________________
activation_91 (Activation)   (None, 32)                0         
_________________________________________________________________
dropout_20 (Dropout)         (None, 32)                0         
_________________________________________________________________
dense_44 (Dense)             (None, 10)                330       
_________________________________________________________________
activation_92 (Activation)   (None, 10)                0         
=================================================================
Total params: 127,114
Trainable params: 127,114
Non-trainable params: 0
_________________________________________________________________
Epoch 1/100
20/20 [==============================] - 4s 163ms/step - loss: 2.3122 - accuracy: 0.1051 - val_loss: 2.3046 - val_accuracy: 0.0875
Epoch 2/100
20/20 [==============================] - 2s 109ms/step - loss: 2.3029 - accuracy: 0.1050 - val_loss: 2.3065 - val_accuracy: 0.0875
…
20/20 [==============================] - 2s 112ms/step - loss: 1.1945 - accuracy: 0.5530 - val_loss: 1.3400 - val_accuracy: 0.4563
Epoch 100/100
20/20 [==============================] - 2s 112ms/step - loss: 1.0875 - accuracy: 0.6029 - val_loss: 1.3384 - val_accuracy: 0.4500
INFO:tensorflow:Assets written to: models_60x60/FingerPrints-3-64-nodes-2-dense-1608497988.model\assets
FingerPrints-1-128-nodes-2-dense-1608498216
Model: "sequential_24"
_________________________________________________________________
Layer (type)                 Output Shape              Param #   
=================================================================
conv2d_48 (Conv2D)           (None, 58, 58, 128)       1280      
_________________________________________________________________
activation_93 (Activation)   (None, 58, 58, 128)       0         
_________________________________________________________________
max_pooling2d_48 (MaxPooling (None, 29, 29, 128)       0         
_________________________________________________________________
flatten_24 (Flatten)         (None, 107648)            0         
_________________________________________________________________
dense_45 (Dense)             (None, 32)                3444768   
_________________________________________________________________
activation_94 (Activation)   (None, 32)                0         
_________________________________________________________________
dropout_21 (Dropout)         (None, 32)                0         
_________________________________________________________________
dense_46 (Dense)             (None, 32)                1056      
_________________________________________________________________
activation_95 (Activation)   (None, 32)                0         
_________________________________________________________________
dropout_22 (Dropout)         (None, 32)                0         
_________________________________________________________________
dense_47 (Dense)             (None, 10)                330       
_________________________________________________________________
activation_96 (Activation)   (None, 10)                0         
=================================================================
Total params: 3,447,434
Trainable params: 3,447,434
Non-trainable params: 0
_________________________________________________________________
Epoch 1/100
20/20 [==============================] - 4s 158ms/step - loss: 2.7524 - accuracy: 0.0755 - val_loss: 2.3029 - val_accuracy: 0.0875
Epoch 2/100
20/20 [==============================] - 2s 109ms/step - loss: 2.3027 - accuracy: 0.0942 - val_loss: 2.3031 - val_accuracy: 0.0750
…
20/20 [==============================] - 2s 112ms/step - loss: 2.3009 - accuracy: 0.1290 - val_loss: 2.3080 - val_accuracy: 0.0750
Epoch 100/100
20/20 [==============================] - 2s 112ms/step - loss: 2.3007 - accuracy: 0.1039 - val_loss: 2.3079 - val_accuracy: 0.0750
INFO:tensorflow:Assets written to: models_60x60/FingerPrints-1-128-nodes-2-dense-1608498216.model\assets
FingerPrints-2-128-nodes-2-dense-1608498443
Model: "sequential_25"
_________________________________________________________________
Layer (type)                 Output Shape              Param #   
=================================================================
conv2d_49 (Conv2D)           (None, 58, 58, 128)       1280      
_________________________________________________________________
activation_97 (Activation)   (None, 58, 58, 128)       0         
_________________________________________________________________
max_pooling2d_49 (MaxPooling (None, 29, 29, 128)       0         
_________________________________________________________________
conv2d_50 (Conv2D)           (None, 27, 27, 128)       147584    
_________________________________________________________________
activation_98 (Activation)   (None, 27, 27, 128)       0         
_________________________________________________________________
max_pooling2d_50 (MaxPooling (None, 13, 13, 128)       0         
_________________________________________________________________
flatten_25 (Flatten)         (None, 21632)             0         
_________________________________________________________________
dense_48 (Dense)             (None, 32)                692256    
_________________________________________________________________
activation_99 (Activation)   (None, 32)                0         
_________________________________________________________________
dropout_23 (Dropout)         (None, 32)                0         
_________________________________________________________________
dense_49 (Dense)             (None, 32)                1056      
_________________________________________________________________
activation_100 (Activation)  (None, 32)                0         
_________________________________________________________________
dropout_24 (Dropout)         (None, 32)                0         
_________________________________________________________________
dense_50 (Dense)             (None, 10)                330       
_________________________________________________________________
activation_101 (Activation)  (None, 10)                0         
=================================================================
Total params: 842,506
Trainable params: 842,506
Non-trainable params: 0
_________________________________________________________________
Epoch 1/100
20/20 [==============================] - 6s 275ms/step - loss: 2.3358 - accuracy: 0.1169 - val_loss: 2.3032 - val_accuracy: 0.0750
Epoch 2/100
20/20 [==============================] - 5s 227ms/step - loss: 2.3027 - accuracy: 0.1005 - val_loss: 2.3035 - val_accuracy: 0.0750
…
20/20 [==============================] - 5s 228ms/step - loss: 0.3752 - accuracy: 0.8620 - val_loss: 1.5595 - val_accuracy: 0.5562
Epoch 100/100
20/20 [==============================] - 5s 229ms/step - loss: 0.3707 - accuracy: 0.8737 - val_loss: 1.7233 - val_accuracy: 0.5625
INFO:tensorflow:Assets written to: models_60x60/FingerPrints-2-128-nodes-2-dense-1608498443.model\assets
FingerPrints-3-128-nodes-2-dense-1608498902
Model: "sequential_26"
_________________________________________________________________
Layer (type)                 Output Shape              Param #   
=================================================================
conv2d_51 (Conv2D)           (None, 58, 58, 128)       1280      
_________________________________________________________________
activation_102 (Activation)  (None, 58, 58, 128)       0         
_________________________________________________________________
max_pooling2d_51 (MaxPooling (None, 29, 29, 128)       0         
_________________________________________________________________
conv2d_52 (Conv2D)           (None, 27, 27, 128)       147584    
_________________________________________________________________
activation_103 (Activation)  (None, 27, 27, 128)       0         
_________________________________________________________________
max_pooling2d_52 (MaxPooling (None, 13, 13, 128)       0         
_________________________________________________________________
conv2d_53 (Conv2D)           (None, 11, 11, 128)       147584    
_________________________________________________________________
activation_104 (Activation)  (None, 11, 11, 128)       0         
_________________________________________________________________
max_pooling2d_53 (MaxPooling (None, 5, 5, 128)         0         
_________________________________________________________________
flatten_26 (Flatten)         (None, 3200)              0         
_________________________________________________________________
dense_51 (Dense)             (None, 32)                102432    
_________________________________________________________________
activation_105 (Activation)  (None, 32)                0         
_________________________________________________________________
dropout_25 (Dropout)         (None, 32)                0         
_________________________________________________________________
dense_52 (Dense)             (None, 32)                1056      
_________________________________________________________________
activation_106 (Activation)  (None, 32)                0         
_________________________________________________________________
dropout_26 (Dropout)         (None, 32)                0         
_________________________________________________________________
dense_53 (Dense)             (None, 10)                330       
_________________________________________________________________
activation_107 (Activation)  (None, 10)                0         
=================================================================
Total params: 400,266
Trainable params: 400,266
Non-trainable params: 0
_________________________________________________________________
Epoch 1/100
20/20 [==============================] - 7s 310ms/step - loss: 2.3211 - accuracy: 0.0970 - val_loss: 2.3002 - val_accuracy: 0.1125
Epoch 2/100
20/20 [==============================] - 5s 252ms/step - loss: 2.3016 - accuracy: 0.1292 - val_loss: 2.3016 - val_accuracy: 0.0938
…
